textual_inversions/sdxl/vase/learned_embeds.safetensors (safetensors, 3184 bytes, 1 tensors)

<vase> f4 [1, 768]
00000000: 4319 85bc 5356 87bd 0ad1 8abd 0d51 29be
00000010: d05b fb3c 29ee 993d 9aa0 8bbd 6602 033d
00000020: 63d5 813d a461 a7bc e878 04bd 3a2a e8bc
00000030: 1e23 3e3d d91d ecbc 70ee be3d bdb4 373b
00000040: 52c8 003a 822c f5bd ef5b dbbc ca54 713b
00000050: b7c5 aabd 0992 1bbc 460f 89bd a4e3 f9bd
00000060: a163 b63c 9ef9 39bd bdb9 70bd c764 6639
00000070: cf29 0e3d da93 35bc 9b24 3d3e 0616 dc3d
00000080: f6a1 3cbd 03a5 32bc e059 d8bd 2ae1 543e
00000090: 4409 8cbc 94ea 3c3c 408d af3c e9b1 373d
000000a0: 600c 29bd d245 ecbd 2544 833d d283 1dbd
000000b0: 6b1a afbd 4bd8 673d 0eb6 90bd b648 debb
000000c0: 777e 9f3d d7c7 013c 1cd3 68bc 89d6 a63b
000000d0: 1d14 abbc 17c4 753d a2f8 9e3c 2c98 bcbc
000000e0: b100 473d d92b 02be 23f4 203c 7846 debd
000000f0: 7a09 7abd f93d 1cbe 3490 81bd dfea 313d
00000100: 1db0 9fbd ff4b 293c fe45 7f3d fd66 4e3d
00000110: 5318 a93d b8e7 ad3d 2336 b0bc 591c 74bd
00000120: 79b4 f63b 75e4 31bd 6eac 5dbd d9b8 ce3d
00000130: dcf6 653d 9425 f83d b85c 34bd 2b33 ff3c
00000140: 9f01 bebd b25e 5abc 2c38 cabd a1a0 bebc
00000150: 84de 3fbb 5393 343d dd7d 9dbd 862f 03bd
00000160: 5e03 553d 766e 25be 64ab cf3d 491f a9bc
00000170: dca1 1b3e 378e 2abe 83d1 dc3b 8172 d23d
00000180: eb9e cebc 27bd a63d b47a c43d 1361 07bd
00000190: 1621 8cbd 5132 1d3d 59be 933d 9b34 283e
000001a0: cd46 44bd a7ad 1fbe aa8d 543c 4244 1dbd
000001b0: f1c2 bd3c 893a cf3d 278b 0cbe b05b 45be
000001c0: 1f1e c7bb e805 b7bc 9f84 53bd 4e49 083e
000001d0: 15ee 0ebd c933 ccbd f0bd 3fbe b9c3 32bd
000001e0: 757b e23d 9c15 8abd 4691 783d 3d7b 8cbd
000001f0: 607d 38bd f7ed 633c 24c3 553d ac12 c93d
00000200: b46f 963d 620f 8b3d f9f6 d3bc 35b0 f9bc
00000210: 38aa adbd b90e 243e f7b8 d63d 387f 883d
00000220: e182 26bd 3a9c 113e a422 e9bd 38d2 6dbd
00000230: f05a d0bd 6040 573d 826d 91bd 896f b0bc
00000240: 97ba 943d 15a2 7abc 47d0 f83c e56f f43d
00000250: f581 513d 4d9c 60bd 98c5 eb3c de5f 173e
00000260: be84 a4bd 4407 cc3a 8327 8d3d f009 a6bd
00000270: 19b5 09be a1c2 843b ec55 07bc 23c2 e63d
00000280: d38a ad3d 54c1 1fbd f7cf d43d 2e16 b43d
00000290: b223 fd3c 47ea f7bd cbf4 5ebd 1dff 433b
000002a0: f36a 81bd a431 44bc 4039 c13d 731e d1bc
000002b0: d129 cd3c 3f8d babd 70bd 193d ac64 94bd
000002c0: 497b 3a3d 6e18 dc3d 0f0a b3bc 1d0c 8fbd
000002d0: 3c2c bb3d 4f53 1b3c 76d5 f93d e8c8 40bd
000002e0: 7044 8cbc 84bd ed39 c9e4 fabd 0de5 613c
000002f0: 1212 31bb 8f00 033e d382 163d 0569 313b
00000300: 820d c83c 89dd 943d f063 b2bc 1c1e aabc
00000310: 5c20 01bd 7a44 1fbd 5de0 00bd 740f 853c
00000320: a618 bdbb a1ec ab3c e432 363d 9965 8dbd
00000330: 8a70 bbbc 735a 573d 2b7c dd3d db38 be3b
00000340: 3ac5 2cbe b24f 3b3d 8aa4 97bd beda dd3c
00000350: ef54 5ebb 7897 bcbd 784f 1ebd 004c 1f3e
00000360: 28d0 8f3d cfc5 d83b f6dd 173e 0aa2 5cbd
00000370: 84fa 7a3d 4f74 ba3c 3ade 85bd 9cf8 b0bd
00000380: 694c 023d 521d 7cbc 7ea9 ee3b 1a6e 003d
00000390: 0375 d7bd a525 6c3d 6f74 3e3d 439e 82bd
000003a0: 382e 533c f4d0 45bc 442d 70bd 79ac b43d
000003b0: 319a 91bd 44e4 34bc 6e29 90bd c508 1abe
000003c0: 2d44 633d 71ea 76bd 5321 5a3d 157c 363d
000003d0: 9f01 3a3d 44bb 6d3c b00d 9dbd 6c04 1b3e
000003e0: f1d5 863d ae7d 8ebd b21d 37bd e6b3 a1bc
000003f0: ca8c 1b3d cd76 9dbd 9981 c9bd 37b4 3c3d
-0.016247397 -0.06608262 -0.06778152 -0.16534825 0.030683428 0.075161286 -0.06817742 0.03198471
0.063395284 -0.0204323 -0.032341868 -0.028340448 0.04642021 -0.028822826 0.09322822 0.0028031312
0.00049126626 -0.1197138 -0.026777236 0.003682422 -0.08338492 -0.009495267 -0.06692366 -0.12201622
0.022264304 -0.04540407 -0.058770884 0.00021972052 0.03470784 -0.011082614 0.18470995 0.10746388
-0.046052895 -0.0109036 -0.10564017 0.20789018 -0.017094262 0.011530537 0.021429658 0.044847403
-0.041271567 -0.11536755 0.06409482 -0.03845579 -0.08549961 0.056602757 -0.07065974 -0.00678357
0.07787793 0.007921181 -0.014210489 0.0050914926 -0.020883614 0.06000146 0.019405667 -0.02302178
0.048584644 -0.12712039 0.009823832 -0.108532846 -0.061044194 -0.15258016 -0.06326333 0.04343688
-0.07797263 0.01033306 0.06232261 0.050391186 0.082565926 0.084914625 -0.02151019 -0.059597347
0.0075288382 -0.043430764 -0.05411952 0.10093851 0.056143627 0.121165425 -0.044033736 0.031152328
-0.09277653 -0.013328241 -0.09873995 -0.023269953 -0.0029276917 0.04408581 -0.07690022 -0.032027744
0.052005164 -0.16155419 0.10140112 -0.0206448 0.15198463 -0.16655813 0.006738843 0.10275746
-0.025222262 0.08141547 0.09593716 -0.03305156 -0.06842248 0.038378064 0.0721404 0.16426317
-0.047919083 -0.15593587 0.0129732285 -0.038395174 0.023164244 0.101185866 -0.13724957 -0.19273257
-0.0060765888 -0.022341684 -0.05164015 0.13309214 -0.03489502 -0.09970815 -0.18724799 -0.043643687
0.11058704 -0.06742403 0.06068542 -0.06859443 -0.045041442 0.013911716 0.052188054 0.098180145
0.073455244 0.067900434 -0.025874602 -0.03047953 -0.08479732 0.16021241 0.10484498 0.0666489
-0.04065216 0.14219752 -0.1138356 -0.05806181 -0.10173595 0.052551627 -0.07100965 -0.02153756
0.07262152 -0.015297432 0.030372752 0.11935405 0.051149327 -0.05483656 0.028780743 0.14782664
-0.08033131 0.001556613 0.06892302 -0.08107364 -0.1344799 0.004051522 -0.008260231 0.112674974
0.08473744 -0.03900273 0.10391229 0.08793293 0.03090081 -0.12105232 -0.05443267 0.0029906698
-0.06319227 -0.011974726 0.09434748 -0.025527215 0.025044354 -0.09108972 0.037534177 -0.07245764
0.04552773 0.10746847 -0.021855382 -0.06984732 0.091392964 0.009480312 0.121989176 -0.0470666
-0.017122477 0.00045345363 -0.122506686 0.01378752 -0.0027018827 0.12793182 0.036745857 0.0027070653
0.024420504 0.07268817 -0.02177617 -0.02076631 -0.031525 -0.038883664 -0.03146397 0.01624272
-0.0057707606 0.020986857 0.044482127 -0.06904144 -0.022880811 0.052576493 0.10814699 0.0058051175
-0.16872111 0.0457303 -0.0740443 0.027081843 -0.0033925136 -0.09208578 -0.038650006 0.15556335
0.070221245 0.0066153775 0.14830765 -0.05386547 0.061274067 0.022760538 -0.06536527 -0.086411685
0.03181115 -0.01538785 0.0072833886 0.031355 -0.10520365 0.057653088 0.04649776 -0.06377842
0.012889437 -0.012073744 -0.05863692 0.08821959 -0.07109488 -0.011040751 -0.07039152 -0.15042408
0.05548494 -0.060282174 0.053254437 0.044551928 0.045411702 0.01450998 -0.07668626 0.15138406
0.06583775 -0.06957565 -0.044706054 -0.019739103 0.037976064 -0.07688675 -0.09839172 0.046070304
