textual_inversions/sdxl/vase/learned_embeds_2.safetensors (safetensors, 2672 bytes, 1 tensors)

<vase> bf16 [1, 1280]
0.115234375 -0.0625 0.021118164 -0.044189453 -0.13867188 0.051513672 0.067871094 0.080078125
-0.049316406 0.0234375 -0.09863281 0.10595703 -0.20703125 0.052490234 0.06225586 0.030395508
0.030639648 -0.06982422 0.032226562 0.04345703 0.024902344 -0.034423828 -0.064941406 0.036376953
-0.107421875 0.04321289 -0.05493164 -0.07373047 0.076660156 -0.15136719 -0.037841797 0.05493164
0.08203125 -0.0056152344 0.10107422 0.12060547 -0.13671875 -0.12402344 -0.053466797 -0.0042419434
0.043945312 0.053710938 0.024047852 -0.027832031 0.011291504 0.046875 -0.011779785 -0.12158203
-0.06689453 0.042236328 0.118652344 0.037353516 -0.10595703 0.005004883 -0.055419922 0.026000977
0.08251953 0.09423828 -0.067871094 0.036132812 0.09423828 0.11035156 -0.13085938 0.026367188
0.011108398 0.0625 0.057128906 0.0016326904 -0.020874023 -0.03515625 -0.014831543 0.0390625
-0.14160156 0.056396484 -0.036132812 -0.08496094 0.048828125 -0.0054626465 -0.18261719 -0.12011719
0.068847656 -0.122558594 -0.26171875 -0.016967773 -0.044921875 0.104003906 -0.0067749023 -0.0099487305
-0.125 -0.08496094 -0.11669922 -0.06347656 -0.06591797 0.061523438 -0.11376953 0.05102539
0.13964844 -0.029296875 -2.2530556e-05 -0.10644531 -0.00970459 0.12158203 -0.022949219 0.047851562
0.080078125 -0.16308594 0.040283203 -0.07421875 -0.095214844 -0.036132812 -0.059814453 0.012329102
0.024902344 0.14257812 -0.020263672 0.08642578 0.056152344 0.08105469 -0.003616333 0.14160156
0.13769531 0.026000977 -0.07763672 -0.041748047 -0.10546875 -0.032714844 0.035888672 0.021606445
-0.009216309 -0.071777344 0.048583984 -0.080078125 0.022094727 0.024047852 -0.028198242 -0.18554688
-0.029174805 0.0057678223 0.09667969 -0.099609375 0.03173828 -0.05834961 -0.014770508 0.10888672
-0.05102539 -0.052734375 0.0095825195 -0.072753906 0.007873535 -0.008422852 0.01586914 -0.10107422
-0.041503906 -0.022827148 7.6293945e-05 -0.22460938 -0.03149414 0.1484375 -0.09765625 -0.064453125
0.0064697266 0.028930664 -0.12890625 0.022094727 -0.115234375 -0.19238281 0.037109375 0.04321289
-0.01373291 -0.0625 -0.075683594 0.057373047 -0.029418945 -0.037109375 0.07080078 0.05102539
-0.03930664 0.07128906 0.064453125 0.045166016 -0.00793457 -0.21777344 -0.016967773 -0.12207031
-0.024780273 -0.09033203 -0.01940918 -0.016967773 -0.061523438 -0.05883789 -0.09033203 0.045654297
-0.010253906 -0.011779785 -0.16992188 0.06640625 -0.1328125 -0.024291992 0.03515625 0.014343262
0.13769531 0.15429688 0.028686523 -0.04711914 0.08300781 -0.045166016 -0.08886719 -0.10888672
0.024414062 -0.046875 -0.05859375 0.14941406 -0.080078125 0.107421875 0.02734375 0.027954102
-0.018554688 -0.02709961 0.04321289 -0.072753906 0.004699707 -0.05419922 0.023803711 0.040039062
0.06298828 -0.021728516 -0.02722168 -0.10986328 -0.008544922 -0.123535156 -0.10449219 -0.008605957
-0.076660156 -0.03125 0.0047302246 -0.030273438 0.103027344 0.08935547 0.034179688 -0.029418945
0.07910156 -0.14257812 -0.10888672 0.06689453 -0.11621094 -0.00039100647 0.17089844 -0.036621094
0.05883789 0.0027618408 0.0012512207 -0.046875 0.14160156 0.008483887 0.04296875 -0.00022697449
00000000: ec3d 80bd ad3c 35bd 0ebe 533d 8b3d a43d
00000010: 4abd c03c cabd d93d 54be 573d 7f3d f93c
00000020: fb3c 8fbd 043d 323d cc3c 0dbd 85bd 153d
00000030: dcbd 313d 61bd 97bd 9d3d 1bbe 1bbd 613d
00000040: a83d b8bb cf3d f73d 0cbe febd 5bbd 8bbb
00000050: 343d 5c3d c53c e4bc 393c 403d 41bc f9bd
00000060: 89bd 2d3d f33d 193d d9bd a43b 63bd d53c
00000070: a93d c13d 8bbd 143d c13d e23d 06be d83c
00000080: 363c 803d 6a3d d63a abbc 10bd 73bc 203d
00000090: 11be 673d 14bd aebd 483d b3bb 3bbe f6bd
000000a0: 8d3d fbbd 86be 8bbc 38bd d53d debb 23bc
000000b0: 00be aebd efbd 82bd 87bd 7c3d e9bd 513d
000000c0: 0f3e f0bc bdb7 dabd 1fbc f93d bcbc 443d
000000d0: a43d 27be 253d 98bd c3bd 14bd 75bd 4a3c
000000e0: cc3c 123e a6bc b13d 663d a63d 6dbb 113e
000000f0: 0d3e d53c 9fbd 2bbd d8bd 06bd 133d b13c
00000100: 17bc 93bd 473d a4bd b53c c53c e7bc 3ebe
00000110: efbc bd3b c63d ccbd 023d 6fbd 72bc df3d
00000120: 51bd 58bd 1d3c 95bd 013c 0abc 823c cfbd
00000130: 2abd bbbc a038 66be 01bd 183e c8bd 84bd
00000140: d43b ed3c 04be b53c ecbd 45be 183d 313d
00000150: 61bc 80bd 9bbd 6b3d f1bc 18bd 913d 513d
00000160: 21bd 923d 843d 393d 02bc 5fbe 8bbc fabd
00000170: cbbc b9bd 9fbc 8bbc 7cbd 71bd b9bd 3b3d
00000180: 28bc 41bc 2ebe 883d 08be c7bc 103d 6b3c
00000190: 0d3e 1e3e eb3c 41bd aa3d 39bd b6bd dfbd
000001a0: c83c 40bd 70bd 193e a4bd dc3d e03c e53c
000001b0: 98bc debc 313d 95bd 9a3b 5ebd c33c 243d
000001c0: 813d b2bc dfbc e1bd 0cbc fdbd d6bd 0dbc
000001d0: 9dbd 00bd 9b3b f8bc d33d b73d 0c3d f1bc
000001e0: a23d 12be dfbd 893d eebd cdb9 2f3e 16bd
000001f0: 713d 353b a43a 40bd 113e 0b3c 303d 6eb9
