textual_inversions/sd2/dog6/learned_embeds.safetensors (safetensors, 4208 bytes, 1 tensors)

<dog6> f4 [1, 1024]
00000000: 7911 843d 2d78 243d 505f 45bb 2bbe 583d
00000010: 9734 e4bc 7007 1f3d 094d d03b 2258 77bc
00000020: f3c3 d9bc b578 823d f278 273d ce2d 15bd
00000030: 12ee f03a b2df 153d 5e5d 3e3d 8454 bd3b
00000040: e79d 24bc c103 7abd 4bbe aa3c ea01 393c
00000050: 0684 a4bc 56ff 303d b76f 78bd 2c31 c03c
00000060: be10 7ebd 0342 323d 2af7 823c 6444 733d
00000070: b606 1e3d d883 3a3d 785f 843d 9ab4 16be
00000080: 090a 46bb 5eab aabc f9af 213d 97e9 cdbc
00000090: 6a19 1cbd f540 4fbd 6378 efbc 1d27 373c
000000a0: e10c e23c d4b9 a03c aa4f 663c 5011 7b3d
000000b0: b150 313d 15f0 13bd e974 4fbc 929b 7cbd
000000c0: 6dd0 a8bc e2c7 03bd 1c6d a9bc e7ec 1cbb
000000d0: 35b4 693c bb03 f4bc 8d95 3bbd ab4e b2bd
000000e0: 34e4 963d 4ad2 b73d 9d44 ee3d 78c3 df38
000000f0: 4a1b 9f3c ba20 003c 2de4 a13d 8561 1fbd
00000100: 2f36 11bd 424e 5cbb 6b7f 2ebd 8264 803b
00000110: 71f4 f6ba dbd8 21bd 008b 3b3c 103a e23c
00000120: 9f4b 4c3d f508 54bc 6733 ca3b 4e8b ee3d
00000130: aeeb 8ebd a401 a93b feeb 14bd 2902 d1bd
00000140: f348 693c ec2e a9bc 4381 053c 0bbf dcbc
00000150: e339 41bd f673 15bd ac10 773d 5c0c 85bc
00000160: a554 2f3d c660 f4ba d410 473b 239d 9c3c
00000170: 7da2 14bd 0f3f d5bb da31 183d c960 893d
00000180: 141a 0e3d e418 343d f105 fd3c 1685 933d
00000190: 347b a13c c727 843d f999 bcbc 7d3e f238
000001a0: c773 f1ba ca8b 5bbd 9d72 32bc 94f4 8d3c
000001b0: d8de 133d 956a 18bc 14bb f33b f099 3e3d
000001c0: 3b92 943d 2da0 4c3c 2b2f 433d 9ba0 d83c
000001d0: 7fbe 203d b20f fb3c ffcc a93c 2600 40bc
000001e0: 6aa4 d838 5339 763c 5cd8 cb3d a92f f6bc
000001f0: 7ec2 b6bc 0f8b 9cbc ae1e 78bd 05e1 5f3d
00000200: 4b67 e2bc 236b b5bd f25e 083d ce45 653c
00000210: f1f3 8fbd b47b 0dbc 5d9d e3bc 6fdd 343b
00000220: 9b98 d83c a39d 40bd ffbf 253c ec57 863d
00000230: bb8e 6f3b 0911 d93c cb2b d3bc d67d cebc
00000240: 1074 103d 9f6f 803c 1720 923d a1c7 453c
00000250: 1d48 903d 2422 a8bd 31e2 b13c 26eb c93c
00000260: df37 933c 8997 b2bb 85b0 f9bc e24a e53c
00000270: b76b efbc 1ab0 2dbd 3a90 97bd 9626 58bd
00000280: 5599 af3c 1ee9 aa3c 4744 85bd 0805 3c3d
00000290: 5888 ac3d f0f2 a23c 843a eabc a36c 8dbc
000002a0: f660 56bd 1d07 02bb 89b2 91bd 24c8 4bbd
000002b0: 8d44 f63c ba69 d5bb d23f 2dbd 1c70 dfbc
000002c0: 6143 b3bd 523a 003d 40d7 a8bd 6932 3fbd
000002d0: e7f8 b8bc 87d2 1c3d 3def df3c d2d1 813c
000002e0: 1652 6c3d 05f3 b83a d363 3cbd 60c6 9e3d
000002f0: c7d5 f1bb a423 b2bc 83b6 d73c 059b fdbc
00000300: f172 003d 6a16 723c 1b4a c9bd e6b7 b8bb
00000310: 7345 623d 896f 5cbb 6427 a0bd 7016 2d3d
00000320: 9bd8 063d 9ad0 ab3c d389 373c c6e0 33bb
00000330: c610 a1bd 66ff 8b3d ccc7 cd3c afe4 ee3a
00000340: 016a f03b da9d 713d 9b7f 4fbd aeac 143d
00000350: 1a41 f23c 8677 e3bc 4a72 e73b 154f 98bd
00000360: 962d 9fbb 4e67 bdbc db56 47bc 2584 32bc
00000370: 55ad 69bd 1d32 13bd 0649 d8bb 34ab 56bd
00000380: b09b 6dbd 3d51 7a3b 8792 c13c 02f7 e3bc
00000390: 5bf5 4dbd cfc7 41bc 3b0c 5abd 5448 5f3c
000003a0: 6450 0abd e42b 053d 1bcf 6e3d 80a0 1c3c
000003b0: 156e 4cbd ec73 31bd 3491 4abd 2715 77bd
000003c0: 8a0a 773b 7de1 93bc 4364 f3bc 188e a7bd
000003d0: 39b1 debc 75bf 4b3c bb22 2abc 6cc6 c83c
000003e0: cf43 26bd cbc0 b1bd 45b2 19bd 2057 ea3c
000003f0: b479 1aba 009f 043d f4b9 08bd a956 85bd
0.06448645 0.04015367 -0.0030116625 0.052915733 -0.027857108 0.038825452 0.0063568396 -0.015096696
-0.026582694 0.06370679 0.040886827 -0.036420636 0.0018381497 0.036590286 0.04647576 0.0057778973
-0.0100474125 -0.061038736 0.020842692 0.01129196 -0.020082485 0.043212257 -0.060653415 0.023460947
-0.062027685 0.043519985 0.015986998 0.059391394 0.03858062 0.045535892 0.06463522 -0.14717332
-0.0030218384 -0.020833667 0.03947446 -0.025135798 -0.038110174 -0.050599057 -0.02923221 0.011178759
0.027594032 0.01961986 0.014057079 0.061295807 0.043289844 -0.036117632 -0.012662151 -0.0616718
-0.020607198 -0.032173045 -0.02068191 -0.0023944916 0.014264156 -0.029786935 -0.04579692 -0.08706411
0.07367745 0.08975656 0.11634181 0.000106698775 0.019422192 0.007820303 0.07904849 -0.03891136
-0.035452064 -0.0033615981 -0.042601984 0.0039182315 -0.001884116 -0.03951345 0.011446714 0.027615577
0.049876805 -0.012941589 0.0061706784 0.11647664 -0.06978546 0.0051576663 -0.036357872 -0.1020549
0.014238584 -0.020652257 0.008148494 -0.026946565 -0.047174346 -0.036487542 0.060318634 -0.016241245
0.042805333 -0.0018644563 0.003037502 0.019117897 -0.036287773 -0.0065077613 0.037156917 0.067079134
0.03469284 0.04396905 0.030886622 0.072031185 0.019712068 0.064528994 -0.023022639 0.000115510986
-0.0018421345 -0.05360011 -0.010891584 0.017328538 0.036101192 -0.009302755 0.007438073 0.046533525
0.07254454 0.012489361 0.047652405 0.02644377 0.03924417 0.030647133 0.020727633 -0.011718785
0.00010330307 0.015028316 0.09953377 -0.030052023 -0.022309538 -0.019109277 -0.060576133 0.054657955
-0.027637145 -0.08858325 0.033293672 0.0139936935 -0.0702895 -0.00863545 -0.027784998 0.0027597805
0.026439955 -0.047025334 0.010116576 0.065597385 0.003655358 0.02649738 -0.025777718 -0.025206488
0.035266936 0.015678225 0.07135027 0.012071521 0.070450045 -0.08209637 0.021714302 0.02464826
0.017970977 -0.0054501933 -0.030479679 0.027989808 -0.029226167 -0.04240427 -0.07400556 -0.052771173
0.02143542 0.020863112 -0.065071635 0.045903236 0.08424443 0.019891232 -0.028592356 -0.017263716
-0.052338563 -0.0019840666 -0.07114131 -0.049751416 0.030061984 -0.0065128477 -0.042297192 -0.027275138
-0.08753086 0.03130562 -0.08244181 -0.046678934 -0.022579623 0.038286712 0.027335757 0.01584712
0.05769547 0.0014110511 -0.045993637 0.07752681 -0.0073802206 -0.02174551 0.026332146 -0.030957708
0.031359617 0.014775852 -0.098285876 -0.005637157 0.055242013 -0.0033635816 -0.07820013 0.042257726
0.032921415 0.020973492 0.011202293 -0.0027447208 -0.078645274 0.06835823 0.025119685 0.0018226112
0.0073368554 0.05898843 -0.050658803 0.036297493 0.029572058 -0.027766954 0.007063185 -0.07436959
-0.004857729 -0.023120549 -0.012166704 -0.0108957635 -0.057050068 -0.035936464 -0.006600502 -0.052409366
-0.058009803 0.0038195394 0.02362944 -0.027827743 -0.050282817 -0.011827423 -0.05323432 0.013628084
-0.033768073 0.03251256 0.05830298 0.009559751 -0.04990967 -0.043323442 -0.049454883 -0.060322907
0.003769549 -0.018051857 -0.029710894 -0.08181399 -0.027184116 0.012435784 -0.010384257 0.024508677
-0.04059201 -0.086793505 -0.037523527 0.028605998 -0.0005892769 0.032378197 -0.033380464 -0.0651067
