textual_inversions/sd2/cat2/learned_embeds.safetensors (safetensors, 4208 bytes, 1 tensors)

<cat2> f4 [1, 1024]
000000 12 96 3a 3d 17 75 9a 3c 96 39 a0 bc 20 6b 4a bc
       0.045553274 0.01885466 -0.01955871 -0.012354642
000010 fc ab 68 bc 2f 3a 02 bd bd c7 cc 3c 8c a1 4b 3c
       -0.0142011605 -0.03179377 0.024997586 0.0124286525
000020 26 94 fa bc 29 96 e5 3b a6 d4 38 3c 67 f7 58 3b
       -0.03058822 0.007006426 0.011281168 0.0033106448
000030 69 c9 e0 bb a7 16 72 bc 4f 12 c4 bb 75 e3 ea bc
       -0.0068599475 -0.014775909 -0.005983628 -0.028672913
000040 80 ae 07 3d fa b1 51 bd 71 66 13 bd a6 13 b4 3b
       0.0331254 -0.051195122 -0.035986368 0.0054955063
000050 5f a8 d2 3c 09 fa 62 bc 12 a6 9d bd 7b ee 2f bc
       0.025715051 -0.013853558 -0.07697691 -0.0107380105
000060 f9 88 0e 3c 55 42 45 3d 8a cc 9e bc d1 7a 99 bc
       0.008699649 0.048158962 -0.019384641 -0.018735321
000070 5f a4 97 bb 86 8f 0e bc 50 27 f7 bc 74 da 80 bc
       -0.004627749 -0.008701211 -0.030170113 -0.015729167
000080 a1 9c 33 bd 9d b2 0f 3d 47 ef 07 bb 59 47 31 bd
       -0.043850545 0.03508245 -0.0020741986 -0.043280933
000090 d9 71 83 bc f6 13 02 bd 16 21 e3 bb 27 57 81 3c
       -0.016045498 -0.031757317 -0.0069314344 0.015788628
0000a0 4b b7 76 bc a0 02 c6 bc e3 46 09 bd 2b 36 af 3b
       -0.015058349 -0.024171174 -0.03351487 0.0053470335
0000b0 31 f5 2e 3d 73 e2 b3 3c ab 85 ce 3c bd 67 21 bc
       0.0427143 0.021958565 0.025210222 -0.009851393
0000c0 75 b8 3f bd 54 25 6b 3c f3 77 6c bd 57 74 43 bb
       -0.04680677 0.014352161 -0.05773158 -0.0029823983
0000d0 58 80 01 bd a1 f5 01 3d 2b db f4 3b a8 35 fe 3c
       -0.03161654 0.03172839 0.007472416 0.031031445
0000e0 f3 f4 19 3d 2a f2 14 bc f7 47 71 ba 53 7b 4a bc
       0.037587117 -0.00909094 -0.0009204144 -0.012358504
0000f0 db 8d 07 bd 67 ac 0b bd 3e bb 4b bc ad 14 8d 3d
       -0.03309427 -0.034099963 -0.012434779 0.06888709
000100 96 2e fd bc 6f 1f e4 bc e3 d3 12 3d 6c 95 bf 3c
       -0.030906003 -0.02784702 0.035846602 0.02338668
000110 5e 41 1c bd bc 0a fd bc f2 b4 e1 bb e6 85 ab ba
       -0.038148277 -0.030888908 -0.0068880254 -0.001308617
000120 44 7b 12 bb 10 4f a5 bb 66 07 9c 3c b4 b7 a5 3c
       -0.0022351304 -0.0050448254 0.019046497 0.020229198
000130 68 fb 1d 3c 90 9f cb bb de 5c 33 bc 2e 7e dc bc
       0.009642459 -0.0062140897 -0.010947434 -0.026915636
000140 aa d1 70 3b c1 b9 5e bb a5 b4 08 3d 16 52 97 3c
       0.0036746063 -0.003398523 0.0333754 0.018471759
000150 6a 2f e0 ba 37 69 c7 bb 1f 3a 00 bc 48 ff 45 3c
       -0.0017103974 -0.0060855406 -0.007826357 0.01208479
000160 0e 24 04 3d 6a 72 19 bd f2 52 b0 3c 60 b2 bd bc
       0.032260947 -0.03746263 0.021523926 -0.023156345
000170 86 8c 0b 3c 54 44 d9 bc 90 f8 93 3c 56 b4 65 3c
       0.00851739 -0.02652184 0.01806286 0.014020046
000180 7a 7b 84 3c 36 f0 af 3c 36 6a 52 3b be e6 1a bd
       0.01617216 0.021476846 0.0032106764 -0.03781771
000190 30 8a 48 3d 93 b9 0d 3d df 79 89 bc c8 9e f6 3b
       0.04895991 0.034600805 -0.016781745 0.0075262524
0001a0 12 04 39 bb ac 15 2e 3c 0a 2a 8b 3c e4 5e 45 3c
       -0.0028231186 0.010625284 0.01698782 0.0120465495
0001b0 76 8e 1e bd 5b 31 bd bc 0a 07 81 3c 45 1f ec bc
       -0.03871008 -0.023094824 0.015750427 -0.028823504
0001c0 ce a7 4b bc e8 ac 14 3c fa e6 92 bb 04 4f 04 bc
       -0.0124301445 0.009074427 -0.004483101 -0.008075479
0001d0 1e 2f e4 bc 35 6d 40 bc 5f e7 9e 3c 67 e4 13 3b
       -0.027854498 -0.011744787 0.019397436 0.0022566558
0001e0 6b 2c 88 bc 99 a5 19 3d 31 2d 0d bc 92 4d 93 3c
       -0.016622743 0.03751144 -0.0086167315 0.017981324
0001f0 59 5f 0a 3c 46 57 a4 ba ca 8d a3 bc 0f 5b 17 3d
       0.008445584 -0.0012538217 -0.019965071 0.036952075
000200 4f bf 42 bc 26 62 a9 3b 99 4c 24 3c 8e 30 de b9
       -0.011886432 0.005169171 0.010028028 -0.00042379316
000210 74 aa 9b bb d6 1d e7 3c 50 38 af 3c 3f a6 b3 3b
       -0.004750544 0.02821247 0.021389157 0.0054824646
000220 b5 f9 e0 bb 82 89 41 bd 09 64 ef bb b8 f3 29 3d
       -0.006865705 -0.04725028 -0.0073056263 0.041492194
000230 67 5f 55 bc 03 0d 3e 3d a4 36 85 3b 1d 93 24 b9
       -0.013023234 0.046399128 0.0040653516 -0.00015695063
000240 c1 eb b8 bc 19 f6 86 bd ed 0f 72 bd 64 0c 68 bc
       -0.022573354 -0.06589908 -0.05909722 -0.01416311
000250 3b e1 d0 3a 2f 2a ae 3a c2 f8 46 3c d9 27 6d 3c
       0.0015936265 0.0013287718 0.012144269 0.014474832
000260 59 b1 ba 3c ec a4 13 bc 71 cc 24 3c e3 21 ce 3b
       0.022789644 -0.009011488 0.010058508 0.0062906607
000270 2b 86 03 bd 51 09 49 3b 3a fa 16 3b 39 0e 0d bc
       -0.032110374 0.003067572 0.002303733 -0.008609348
000280 95 01 2a 3d b0 a5 38 3c 06 32 89 bd 78 03 6e 3d
       0.041505415 0.011269972 -0.06698994 0.058108777
000290 68 b4 4e bd 67 01 b8 bc ef d0 ef bc 41 db 41 3d
       -0.050465018 -0.022461606 -0.029274432 0.047328237
0002a0 8c 81 c6 bc dc 57 8b 3b a7 f0 44 bd 56 ef 11 bc
       -0.024231695 0.004252417 -0.048081066 -0.00890716
0002b0 bb a5 6b 3c 6e 6e bf 3c 6c 85 af 3c fd 09 83 3c
       0.014382775 0.023368087 0.021425925 0.015995974
0002c0 d7 12 3c bd 3f 33 29 3c 89 bc 3c bb af 6a 18 3c
       -0.045916405 0.010327159 -0.00287989 0.009302779
0002d0 6c 27 c9 3c 09 2e 00 bd 93 8e b6 bb 84 8c 35 ba
       0.02455493 -0.031293903 -0.0055711954 -0.00069255405
0002e0 54 ab 85 3c 42 d8 b0 bc 4f 2d 50 bd 71 73 8a bb
       0.016317047 -0.021587495 -0.05082446 -0.0042251875
0002f0 25 fa 72 bd 70 8e 4c 3c f1 81 c6 bc 7a c7 1b 3c
       -0.059320588 0.012485132 -0.024231883 0.009508008
000300 40 1a dc bc 68 41 60 bd 98 02 15 3c 33 76 54 3c
       -0.026867986 -0.054749876 0.009094857 0.012967634
000310 71 bf 00 3d f1 c2 47 bc 82 c5 eb bc 71 1a 83 bc
       0.031432573 -0.012192474 -0.028780703 -0.01600382
000320 91 95 87 3b 14 5b 96 bb be e3 76 3c 6e d5 9a bb
       0.0041377028 -0.004588494 0.015068946 -0.00472515
000330 d7 36 47 bc ca e8 92 b9 a8 c2 7b 3c 15 93 e9 bc
       -0.012159071 -0.0002802073 0.015366234 -0.028512517
000340 24 04 be 3b 10 24 5a 3d 29 d6 4f 3d 32 6c 0a bd
       0.0057988334 0.053257048 0.05074135 -0.03379459
000350 fe ff 5b 3c e8 c8 12 3c 9e d2 70 bc 4e ee c3 3a
       0.0134277325 0.008959033 -0.014698653 0.001494834
000360 b6 b0 86 3a 90 99 1f bb 05 74 19 bd 54 b0 24 3d
       0.0010276053 -0.0024353005 -0.03746416 0.040207222
000370 a5 2a 82 3b c9 ac 78 bd 84 0d bc 3c ed 1f c7 bc
       0.003972369 -0.060711656 0.022955664 -0.024307216
000380 c4 e0 36 3c 0f 3b a4 bc 89 e5 28 bd 9f 5c 4e bc
       0.011161987 -0.020047693 -0.041234527 -0.012595325
000390 86 69 c2 bc 91 a1 0c bc 61 5f f4 3b b5 7a da ba
       -0.023731958 -0.008583442 0.007457659 -0.001666865
0003a0 f7 6d 31 bd ab c0 04 bd 80 dd 71 3d 41 cf 23 3c
       -0.04331776 -0.032410305 0.05904913 0.009998144
0003b0 94 c1 15 3b c8 19 a6 3a 8c f5 87 3c 81 ce 99 3b
       0.0022850977 0.0012672478 0.016596578 0.0046938066
0003c0 3f a3 a6 3c 90 34 99 bd c0 2a 6b 3b 3b 87 2b bb
       0.020341514 -0.074807286 0.0035883635 -0.0026173133
0003d0 c3 d3 03 3a e7 a0 23 bc f6 8b cf 3c b6 01 ba 3c
       0.00050288084 -0.009987093 0.025335293 0.022705894
0003e0 4c 90 a8 39 41 3b a6 bc 25 7c b3 3c e1 94 d1 3b
       0.00032150967 -0.020291926 0.021909783 0.0063959216
0003f0 3a 10 0b bc f3 e5 72 3d cf b6 ed 3b b7 f6 b9 3c
       -0.008487755 0.059301328 0.0072544585 0.02270065
