textual_inversions/sdxl/dog/learned_embeds_2.safetensors (safetensors, 2672 bytes, 1 tensors)

<dog> bf16 [1, 1280]
0.03515625 0.020629883 -0.00088500977 0.08300781 0.068847656 0.060791016 0.095703125 0.030395508
0.049804688 0.00091171265 -0.016113281 0.14160156 0.05517578 -0.036132812 0.0059814453 -0.12207031
-0.10107422 0.0138549805 0.020507812 -0.061279297 -0.01184082 0.0011672974 -0.034179688 -0.05444336
0.026855469 0.022949219 0.07080078 0.08984375 0.025024414 -0.060546875 0.07324219 -0.11328125
0.103515625 0.037841797 -0.010131836 0.07470703 0.100097656 -0.0546875 -0.06542969 -0.028442383
-0.12792969 0.12060547 -0.056884766 -0.10986328 0.13769531 0.0390625 -0.07373047 0.028442383
-0.012573242 0.13574219 0.07324219 0.033691406 0.041259766 -0.009094238 0.09375 0.06201172
-0.012207031 0.028076172 -0.20703125 0.064453125 -0.12988281 -0.012939453 -0.09423828 0.013244629
0.056884766 0.026611328 0.013671875 -0.05810547 0.040771484 0.075683594 -0.11425781 -0.05493164
-0.04248047 0.07910156 0.008239746 -0.031982422 0.012268066 -0.06225586 -0.052001953 -0.12792969
0.06982422 0.041259766 -0.076660156 -0.12597656 0.056640625 -0.041748047 0.08544922 0.099609375
0.026977539 0.11328125 -0.016723633 -0.059814453 -0.022949219 -0.016967773 -0.07421875 0.01977539
-0.12597656 -0.10253906 0.013122559 0.009094238 -0.048095703 0.06542969 0.0038757324 -0.053710938
0.20898438 -0.03881836 0.10107422 0.1328125 -0.012145996 0.049072266 0.10839844 -0.20800781
0.02355957 -0.07714844 -0.037353516 -0.09375 0.072753906 0.016235352 0.18164062 0.05834961
0.07373047 0.01977539 -0.123535156 -0.012512207 0.0055236816 0.087402344 0.011230469 0.044677734
-0.025512695 -0.010864258 -0.024902344 -0.021362305 -0.0079956055 -0.09375 0.16992188 0.029296875
0.018554688 0.029418945 -0.06738281 -0.021240234 0.110839844 -0.13671875 -0.06298828 -0.026123047
-0.032226562 0.087890625 -0.037109375 -0.12792969 -0.0546875 0.012817383 0.12792969 -0.060302734
-0.083496094 -0.049560547 -0.008178711 0.033447266 -0.16894531 0.15917969 0.11279297 0.025512695
0.16601562 -0.057128906 -0.16894531 0.125 -0.14257812 -0.24707031 0.07128906 0.020874023
0.053955078 -0.059326172 0.0012664795 -0.17773438 -0.061035156 -0.08105469 0.07519531 0.013122559
-0.19824219 0.0008239746 -0.06591797 0.14453125 -0.13964844 -0.06689453 -0.046142578 0.06201172
-0.07373047 -0.09082031 -0.014465332 -0.023925781 -0.08251953 -0.18652344 -0.072265625 0.030029297
0.06933594 -0.053955078 -0.02709961 -0.083496094 -0.010192871 0.09814453 -0.083984375 0.060058594
0.083496094 -0.052001953 0.019042969 -0.014709473 0.016113281 0.048828125 0.039794922 0.014221191
-0.024291992 -0.063964844 -0.07910156 0.068847656 0.15820312 0.095703125 -0.072753906 -0.12695312
-0.12597656 -0.052001953 -0.04345703 0.13183594 -0.006866455 0.0703125 -0.08886719 -0.15429688
0.029663086 0.2265625 0.076171875 -0.09033203 -0.045898438 -0.00793457 0.025878906 -0.06225586
-0.06298828 0.07861328 -0.11767578 0.030151367 0.05493164 0.013916016 0.15722656 -0.022460938
0.044433594 0.00051116943 0.046142578 0.11328125 -0.07763672 0.07714844 0.10595703 0.07421875
0.052490234 -0.046142578 0.03112793 -0.088378906 0.06201172 0.025024414 -0.0859375 0.07373047
00000000: 103d a93c 68ba aa3d 8d3d 793d c43d f93c
00000010: 4c3d 6f3a 84bc 113e 623d 14bd c43b fabd
00000020: cfbd 633c a83c 7bbd 42bc 993a 0cbd 5fbd
00000030: dc3c bc3c 913d b83d cd3c 78bd 963d e8bd
00000040: d43d 1b3d 26bc 993d cd3d 60bd 86bd e9bc
00000050: 03be f73d 69bd e1bd 0d3e 203d 97bd e93c
00000060: 4ebc 0b3e 963d 0a3d 293d 15bc c03d 7e3d
00000070: 48bc e63c 54be 843d 05be 54bc c1bd 593c
00000080: 693d da3c 603c 6ebd 273d 9b3d eabd 61bd
00000090: 2ebd a23d 073c 03bd 493c 7fbd 55bd 03be
000000a0: 8f3d 293d 9dbd 01be 683d 2bbd af3d cc3d
000000b0: dd3c e83d 89bc 75bd bcbc 8bbc 98bd a23c
000000c0: 01be d2bd 573c 153c 45bd 863d 7e3b 5cbd
000000d0: 563e 1fbd cf3d 083e 47bc 493d de3d 55be
000000e0: c13c 9ebd 19bd c0bd 953d 853c 3a3e 6f3d
000000f0: 973d a23c fdbd 4dbc b53b b33d 383c 373d
00000100: d1bc 32bc ccbc afbc 03bc c0bd 2e3e f03c
00000110: 983c f13c 8abd aebc e33d 0cbe 81bd d6bc
00000120: 04bd b43d 18bd 03be 60bd 523c 033e 77bd
00000130: abbd 4bbd 06bc 093d 2dbe 233e e73d d13c
00000140: 2a3e 6abd 2dbe 003e 12be 7dbe 923d ab3c
00000150: 5d3d 73bd a63a 36be 7abd a6bd 9a3d 573c
00000160: 4bbe 583a 87bd 143e 0fbe 89bd 3dbd 7e3d
00000170: 97bd babd 6dbc c4bc a9bd 3fbe 94bd f63c
00000180: 8e3d 5dbd debc abbd 27bc c93d acbd 763d
00000190: ab3d 55bd 9c3c 71bc 843c 483d 233d 693c
000001a0: c7bc 83bd a2bd 8d3d 223e c43d 95bd 02be
000001b0: 01be 55bd 32bd 073e e1bb 903d b6bd 1ebe
000001c0: f33c 683e 9c3d b9bd 3cbd 02bc d43c 7fbd
000001d0: 81bd a13d f1bd f73c 613d 643c 213e b8bc
000001e0: 363d 063a 3d3d e83d 9fbd 9e3d d93d 983d
000001f0: 573d 3dbd ff3c b5bd 7e3d cd3c b0bd 973d
