textual_inversions/sdxl/dog/learned_embeds.safetensors (safetensors, 3176 bytes, 1 tensors)

<dog> f4 [1, 768]
0	0x3b976c68	0.0046210773
1	0x3e70e2e0	0.23524046
2	0xbb29e5f1	-0.002592441
3	0xbe1aeda3	-0.15129714
4	0x3c9d41ed	0.019196475
5	0x3cf335fa	0.029688824
6	0x3d17156a	0.036885656
7	0xbcf19eac	-0.029494606
8	0xbc18fbab	-0.009337346
9	0xbd527626	-0.051382206
10	0xbcdbf41a	-0.026849795
11	0x3dba839f	0.09107136
12	0x3c39b35a	0.011334265
13	0x3d95878f	0.073012464
14	0x3cdc09b0	0.026860088
15	0x3cb03361	0.021508874
16	0xbd7aa4b1	-0.06119222
17	0xbd14490d	-0.03620248
18	0xbd12b458	-0.03581652
19	0xbcbe9398	-0.023263738
20	0xbd37a6b0	-0.0448367
21	0xbc64bb21	-0.013960631
22	0xbcea43ab	-0.02859672
23	0xbd22066a	-0.0395569
24	0x3e1f40ce	0.15552065
25	0xbda01a39	-0.078175016
26	0xbcd74666	-0.026278686
27	0x3cb4a486	0.022051107
28	0xbdd65cd1	-0.10466922
29	0x3bff5b9d	0.0077929036
30	0xbd3777db	-0.044792037
31	0x3cb1d5b4	0.021708347
32	0xbdd2e619	-0.10297794
33	0xbbc46dac	-0.005994519
34	0xbde5d225	-0.112217225
35	0x3e6183fa	0.22023001
36	0x3b2951a0	0.0025836006
37	0xbc975efd	-0.018477911
38	0xbd616553	-0.05502827
39	0x3d0d0fa7	0.034438755
40	0x3dc8c9c4	0.09804109
41	0xbb8ba5c5	-0.0042617046
42	0xbcfa865a	-0.030581642
43	0x3b9fa1c8	0.0048715807
44	0xbca4d69b	-0.020121863
45	0xba60b062	-0.0008571205
46	0xbc5d5e91	-0.013511316
47	0xbd6013d1	-0.0547064
48	0xbdbba551	-0.09162391
49	0xbd3f0cae	-0.04664295
50	0x3d858af7	0.06520646
51	0xbde5d700	-0.112226486
52	0x3d67d02f	0.056595024
53	0xbde721be	-0.11285733
54	0xbd8346d0	-0.06409991
55	0xbd884eee	-0.0665568
56	0xbd0ed60e	-0.034872107
57	0x3d63f210	0.05565077
58	0x3cef71b6	0.029229026
59	0xbd07c694	-0.033148363
60	0xbc6eafb8	-0.014568262
61	0xbde13377	-0.10996144
62	0xbd8a97db	-0.067672454
63	0x3c304f00	0.010761023
64	0xbd67285c	-0.056434974
65	0xbd6c3511	-0.057667796
66	0x3dfae510	0.122507215
67	0x3ba10321	0.004913703
68	0x3d2ff402	0.042957313
69	0xbd118516	-0.03552731
70	0xbbb3f8ae	-0.0054922914
71	0xbd8b2004	-0.06793216
72	0x3d10260b	0.03519253
73	0xbde40728	-0.111341774
74	0x3d86ccd5	0.06582037
75	0xbcdbf7ee	-0.02685162
76	0xbbcbf3f0	-0.006224148
77	0xbd8e8de5	-0.06960658
78	0xbda5725f	-0.08078455
79	0x3d4407f1	0.047859136
80	0x3d930488	0.07178599
81	0x3bd735af	0.006567679
82	0xbba6d2c6	-0.005091044
83	0xbc91e3e4	-0.017808862
84	0x3c3b1a91	0.011419908
85	0xbd9e328a	-0.07724483
86	0x3d2369b9	0.039895747
87	0xbe2013bc	-0.15632528
88	0x3d881c79	0.06646056
89	0x3d54ad13	0.05192287
90	0xbc4d4d66	-0.01253066
91	0x3d5d461f	0.05402195
92	0x39d19f9d	0.00039982508
93	0xbd320a84	-0.04346706
94	0x3cde2c8b	0.02712085
95	0xbde20054	-0.11035219
96	0xbde6a583	-0.112620376
97	0x3ccb9e55	0.024855772
98	0x3d38ee15	0.045148928
99	0x3d3d3c2e	0.04619997
100	0x3d67346b	0.056446474
101	0x3d1b4f20	0.037917256
102	0x3d169723	0.03676523
103	0xbbb45b33	-0.005504036
104	0xbcee58c6	-0.029095065
105	0xbd8c9bf4	-0.06865683
106	0xbd451229	-0.048113022
107	0xbd932bdd	-0.07186101
108	0xbc5ca91f	-0.013468056
109	0x3cd66e6e	0.026175704
110	0xbd34c929	-0.044137154
111	0xbd673a60	-0.056452155
112	0x3daff12f	0.08590924
113	0xbdcc0c74	-0.09963313
114	0xbc860f8d	-0.016364837
115	0x3d195ce6	0.03744211
116	0x3dcf63c1	0.101264484
117	0xbe04a4c8	-0.12953484
118	0x3dacc7d5	0.084365524
119	0xbdb51590	-0.08842003
120	0x3d1194d3	0.03554232
121	0xbdfd82cc	-0.12378463
122	0x3d004391	0.031314436
123	0x3ce87916	0.02837805
124	0x3d345e8f	0.04403549
125	0x3d107740	0.035269976
126	0x3d0db309	0.03459457
127	0xbd5f1ded	-0.0544719
128	0x3dbccd8e	0.09218894
129	0x3dd2dda8	0.10296184
130	0x3cdfb588	0.02730824
131	0x3d9fe95c	0.07808182
132	0xbdb43c9c	-0.08800623
133	0xbc7963f2	-0.015221583
134	0x3d8da83e	0.06916855
135	0x3d996cfe	0.07491492
136	0xbdc7c114	-0.097536236
137	0xbdb3727c	-0.087620705
138	0x3d80548c	0.06266126
139	0x3c122a80	0.008921266
140	0xbd739a53	-0.059473347
141	0x3c343161	0.010998101
142	0x3ba2f775	0.004973347
143	0x3d6f78b1	0.05846471
144	0x3da41892	0.08012499
145	0x3d5b3b7c	0.053523526
146	0xbb658512	-0.0035021943
147	0x3dfb1125	0.122591294
148	0x3d77ddad	0.06051414
149	0xbd0b2ce3	-0.033978354
150	0x3aad207a	0.0013208531
151	0x3d84aea5	0.06478623
152	0xbd0f23d3	-0.034946274
153	0xbc058c19	-0.008151078
154	0x3d78beea	0.060728945
155	0x39da7e6b	0.0004167439
156	0x3d9d0177	0.07666295
157	0xbcbec7e7	-0.02328868
158	0x3cfd818c	0.030945562
159	0xbb2604f5	-0.0025332544
160	0x3b422920	0.0029626563
161	0x3e0ddb9b	0.13853304
162	0x3e20cd4f	0.15703319
163	0xbb8a2280	-0.0042155385
164	0xbd9e85b0	-0.077403426
165	0x3cee1dcf	0.029066948
166	0x3d40e0e0	0.047089458
167	0xbe16de81	-0.14733316
168	0x3cdebea8	0.027190521
169	0x3c375bd1	0.011191324
170	0x3d548961	0.051888827
171	0xbdaaae4d	-0.083340265
172	0xbe1af004	-0.15130621
173	0xbd4a6e45	-0.049421567
174	0x3db5805c	0.08862373
175	0xbd201cde	-0.03909003
176	0x3e05fe65	0.13085325
177	0x3d70343e	0.058643572
178	0x3d11a1d5	0.035554726
179	0x3c81a7b6	0.015827041
180	0xbbcbb4ea	-0.006216635
181	0xbd1a3a57	-0.037653293
182	0x3dfbc4d5	0.12293402
183	0x3cb21996	0.021740716
184	0x3c725610	0.014791027
185	0xbde1c15e	-0.1102321
186	0x3d3948c7	0.04523542
187	0x3d85bf3e	0.06530617
188	0xbcac0a17	-0.021000905
189	0x3d44ac22	0.04801572
190	0x3d1de1f1	0.038545553
191	0x3cf7a152	0.03022829
192	0xbcad1f75	-0.021133164
193	0x3df4859f	0.11939549
194	0xbe0f7ac4	-0.14011675
195	0x3e0880c9	0.13330378
196	0xbd5257ec	-0.05135338
197	0xbe08227d	-0.13294406
198	0x3db4e1b4	0.08832112
199	0x3dd0be0c	0.101924986
200	0xbd2cbf1f	-0.042174455
201	0x3dbe42c9	0.09290082
202	0xbdd72ec8	-0.1050697
203	0xbd7e2414	-0.062046126
204	0xbda7a911	-0.08186544
205	0x3da20787	0.07911592
206	0x3db4db15	0.08830849
207	0xbd10f726	-0.03539195
208	0xbda99112	-0.08279623
209	0x3d0df821	0.034660462
210	0x3d8c063c	0.068371266
211	0x3d9b799b	0.07591554
212	0x3d4af42a	0.04954926
213	0xbe0f6417	-0.14003025
214	0xbcd47a23	-0.025937146
215	0xbca0df01	-0.019637587
216	0x3d2cb42b	0.04216401
217	0x3e0d04f7	0.13771425
218	0x3d868319	0.06567974
219	0x3db36b29	0.087606736
220	0xbd314639	-0.04327986
221	0xbcb00965	-0.021488855
222	0x3d4e7f65	0.05041446
223	0xbda3fd80	-0.08007336
224	0x3c42ffaa	0.011901775
225	0x3c932c51	0.017965468
226	0x3d8e8547	0.069590144
227	0xbd1fedcb	-0.039045136
228	0xbd5ca9f1	-0.053873006
229	0xbdd3cc0c	-0.10341653
230	0xbe155f87	-0.14587222
231	0xbd101b3d	-0.035182226
232	0x3c5ba4e4	0.013406012
233	0xbce19f4e	-0.027541783
234	0x3d3d99a4	0.0462891
235	0x3db7b4a1	0.08969999
236	0xbda2e8f3	-0.07954588
237	0x3c91e23e	0.017808076
238	0xbd29a2d8	-0.041415066
239	0xbdf576e0	-0.11985564
240	0x3d91c8ac	0.07118353
241	0x3cb7fb82	0.022458795
242	0xbb10096f	-0.002197828
243	0x3d6293fd	0.055316914
244	0x3db0ea4b	0.08638438
245	0xbd1bbbb2	-0.038020797
246	0x3db2b98d	0.08726797
247	0x3e1cd058	0.15313852
248	0x3dc6c934	0.09706345
249	0xbdab818e	-0.0837432
250	0xbd9f4577	-0.07776921
251	0xbb906bf0	-0.0044073984
252	0x3d011886	0.031517528
253	0xbde9d7c5	-0.11418108
254	0xbd09469d	-0.033514608
255	0xbb875016	-0.00412942
