textual_inversions/sdxl/dog6/learned_embeds.safetensors (safetensors, 3184 bytes, 1 tensors)

<dog6> f4 [1, 768]
00000000: 7095 58bd 3614 9b3d f215 453d b2e3 5bbe
00000010: 030a d53d 13ea 97bd 503e e2bc 51a9 9e3d
00000020: f052 a63c 3e4b 6b3d 745f e0bd 1e0a 9abd
00000030: cf49 8e3d 2507 cabc 91ac 5f3c ede7 9f3d
00000040: b130 81b9 1fe7 fdbc 3942 c83d b56b 80bd
00000050: 8e0f 223e 7d90 113c 5ac1 bfbc 5670 7bbb
00000060: 0d03 ca3d 6792 f5bc 16a7 0dbe d861 9a3d
00000070: 13a4 8e3d baa8 e43c eb2d 573c 0b58 5a3d
00000080: 0e59 9abc 3474 67bd 0eca 023d 455f 0c3e
00000090: 8b4c d03c b372 073d 53b0 14bd e971 5bbd
000000a0: f162 7a3c 7afb 4bbd 3e7f 223c 3eb3 55bd
000000b0: 71dc 59bd 8532 bb3d 6ce8 113b 1b97 1bbd
000000c0: c351 9bbd e0b4 ddbb 4de0 963d 0825 8f3c
000000d0: 5a05 af3c 24c9 1fbd 49b2 b6bd 1a3e 95bd
000000e0: 25a0 0ebd ac20 523d b352 4c3d 0354 f9bc
000000f0: 3ad8 56bc 666c 9fbd ec55 77bd 4bd9 9dbc
00000100: 0e39 c9bd 4ac7 f23d c500 92bd 690c f63b
00000110: 1132 4d3d af3e 943c 4ea7 3ebc 44b4 d83d
00000120: aa14 be3d 7b81 7abd 3127 c7bd 4c89 163c
00000130: ffe0 92bd 0b00 45bd 198c 5dbd fab2 0dbb
00000140: bdd8 a2bb 247e 833d eaad ae3c e8c4 de3c
00000150: abd8 563b 92ef 87bd 9dd5 033d 177d 18be
00000160: 8bf8 873d 4eb4 a6bb a1ba a2bd e5c4 8e3d
00000170: 77af 42be f35c 8c3d f800 983d d022 a9bc
00000180: 6dc0 423d 7e07 afbc e531 8cbc 115c 023d
00000190: 19b7 78bc b018 073e 4136 fcbc 3d2d a2bd
000001a0: aef7 1fbc 71ba 30bd 20ef ef3d d379 8f3d
000001b0: a02b 473d 4c3c 37bd dd6a 0f3d ace7 16bd
000001c0: 9902 4dbc 3126 5dba f7f9 8fbc 5fe6 e53d
000001d0: b75e 46bd bd5c 813d 2fae a43c a3cf e6bd
000001e0: bfee 063d d9e3 babd 7004 d1bc 2f00 133d
000001f0: 4a10 8e3d 0f0b f03a 3c84 383e e10f 3d3d
00000200: e1d9 0ebd 5452 a73d c07f fabc 25da 103c
00000210: b08f cfbd 018b 803c cf3a 363d 85a1 86bb
00000220: bf0a 11bd 55dd 083d 407e 08bc 597d 703d
00000230: 07e4 b6bd aefb 943c 5f03 46bd 9490 0abd
00000240: f3a4 173e 32b0 7bbc 0c51 3b3d 4d84 fc3d
00000250: 0e42 46bc 2517 d039 1304 bc3b ae34 0f3e
00000260: e259 f3bd b736 a03d d359 a33a 3d97 5fbe
00000270: 1e8f c63d 57c5 45bb d87c 3abd b952 a33d
00000280: b8eb 813d b512 4dbc bd19 023e 4c22 9f3b
00000290: 329a 87bc dc35 ddbd 3af3 473e d459 a1bd
000002a0: 138a 54bd a782 28bd a287 03be a271 243c
000002b0: 8a18 05be 7007 a03c 5a00 55bd 8c2d 1abd
000002c0: 5d93 95bd a9d0 8d3c 1c68 10bc 71a9 bfbd
000002d0: 10eb 953d 4e71 9d3d 6789 043c f907 33bd
000002e0: 8f83 523d 2f82 24bd ab1d 893d 11d7 16bd
000002f0: 23e0 5e3d 20d8 3d3d 817d e43c 7ef3 ae3d
00000300: 6005 9b3d c5ef 1e3e f54b 98bd 7240 6ebc
00000310: 1f0c 17be 21ac b4bb 349e 8e3d 12ec 1dbd
00000320: 8c58 b83c 014c 363c bf7f 4abc 4479 62bd
00000330: 7683 63bd fd73 edbc 9304 90bd e946 11be
00000340: 6a83 07bd b45a 283d 7ac9 c43c 0065 56bd
00000350: d0f2 bebb fe0e 31bd 994b 84bc 90c0 f93c
00000360: 39ce 193c 0873 bd3b 915c c33d 6343 92bd
00000370: 0497 8cbd a320 41bd da78 9dbc a542 03bc
00000380: 7b33 b03d c5bf 3b3d 1ccd e13a 2e33 3ebc
00000390: 1cc2 78bc 6d16 603b 7627 6d3d c5d1 f5bd
000003a0: 779e 56bb e8d6 423d 68c3 b1bd c131 073d
000003b0: c4aa 513c 29e6 b2bd 02e2 ef3c cb7b ccbd
000003c0: 6465 ab3c 7248 4f3d 0587 193e f7d9 6a3c
000003d0: faa0 8abc a131 a83b 4173 25bd 591e bf3d
000003e0: 743e 333e a624 1d3d d77a f53c 8872 e2bc
000003f0: e2da edbc b0ee 413d 8052 97bd a0bf 9e3d
-0.05287689 0.07572214 0.04811663 -0.21473578 0.104023 -0.07417693 -0.027617604 0.07747138
0.02030322 0.057444803 -0.10955706 -0.07521461 0.069476716 -0.02466161 0.013651983 0.07807908
-0.00024641075 -0.030993996 0.09778256 -0.062705435 0.15826246 0.008884546 -0.023407627 -0.0038366518
0.09863863 -0.029977037 -0.1383327 0.075381935 0.069648884 0.027912486 0.013133506 0.05330662
-0.018841293 -0.056507304 0.031930976 0.13708217 0.025427124 0.03306837 -0.03630097 -0.05357543
0.0152823785 -0.049800374 0.009918032 -0.05217289 -0.053188745 0.09140495 0.0022263778 -0.037985902
-0.07583954 -0.0067659467 0.07367001 0.017473713 0.021364857 -0.039010182 -0.08920724 -0.072872356
-0.034820694 0.05130069 0.049883556 -0.030435568 -0.013113076 -0.07784347 -0.060384676 -0.019268652
-0.098253354 0.118544176 -0.07129053 0.0075088036 0.050096575 0.018096296 -0.011636568 0.10581258
0.09281285 -0.06115864 -0.09724272 0.009188008 -0.07171821 -0.048095744 -0.054088686 -0.002162157
-0.004969685 0.06420544 0.021323163 0.027193502 0.0032782953 -0.06637491 0.03218614 -0.14891468
0.06639203 -0.005087412 -0.07945753 0.069711484 -0.19012247 0.06853666 0.0742206 -0.020646483
0.047546793 -0.021365877 -0.017113635 0.031826083 -0.015180373 0.13193011 -0.030787589 -0.07918785
-0.009763641 -0.043146554 0.11715531 0.07005658 0.04862559 -0.044735238 0.035014022 -0.036842033
-0.012512826 -0.0008436172 -0.017575247 0.112255804 -0.04843017 0.063165165 0.020102588 -0.11270072
0.03294253 -0.0912549 -0.025514811 0.035888847 0.06936701 0.0018313843 0.18019193 0.04615772
-0.034875754 0.0817 -0.030578494 0.008841072 -0.10134828 0.015691282 0.044489678 -0.00410861
-0.03541064 0.033414204 -0.008330882 0.05871329 -0.089302115 0.018186416 -0.04834306 -0.033829287
0.14809017 -0.015361832 0.04573159 0.12329922 -0.01210071 0.00039690096 0.0057377904 0.1398494
-0.11882378 0.07822936 0.0012462683 -0.21835037 0.09695266 -0.0030177438 -0.045529217 0.079747625
0.06343788 -0.012516667 0.12705131 0.0048563834 -0.016553018 -0.108012885 0.19526377 -0.078784615
-0.05188949 -0.041140225 -0.12844709 0.010036858 -0.12997642 0.019534796 -0.05200229 -0.037641093
-0.07303498 0.017311411 -0.008813884 -0.0935849 0.07320225 0.07687627 0.0080894 -0.043708775
0.051394995 -0.040163215 0.06695112 -0.036826197 0.054412972 0.04634869 0.027891876 0.08542536
0.075693846 0.15521152 -0.07436363 -0.014541732 -0.14750718 -0.0055136834 0.069637686 -0.038555212
0.02250316 0.011126519 -0.012359559 -0.05529143 -0.055545293 -0.028985972 -0.070321225 -0.14187206
-0.03308431 0.041102126 0.024021853 -0.052342415 -0.0058272853 -0.04322719 -0.016149329 0.030487329
0.009387546 0.005781535 0.0953914 -0.07141759 -0.068647414 -0.047150265 -0.019222666 -0.008011495
0.08603569 0.045837183 0.0017227265 -0.011608882 -0.015182998 0.0034193054 0.05789896 -0.12002901
-0.003274826 0.04756823 -0.08679849 0.033006433 0.012797061 -0.08735306 0.029282574 -0.09984549
0.02092237 0.0506062 0.14992912 0.014334193 -0.016922463 0.0051328694 -0.040393118 0.0933196
0.17504293 0.03836503 0.029965801 -0.027642503 -0.029035036 0.04734677 -0.073887825 0.07751393
