textual_inversions/sdxl/dog6/learned_embeds_2.safetensors (safetensors, 2672 bytes, 1 tensors)

<dog6> bf16 [1, 1280]
00000000: 00bc 013d cc3c b73d d2bd 163d b73d 27bc
00000010: 6abd c4bb 23bd 22ba 0c3e e23c b63c eabd
00000020: 153c 9f3d e6bd 11bc 523b f83c a03b 513b
00000030: 253d 44ba ad3c da3d bebb 20bd 883c 8fbd
00000040: 9cbd c9bd e23d 693d 023d 8a3c a43d d4bd
00000050: d0bc ab3d 04be ab3c 1f3c 703d debd 11be
00000060: 62bd 363d 063d 073e d43d b6bc ff3c e43d
00000070: 40bc b73c 81bc b53d 7d3b 463d 86bc bbbb
00000080: 3b3d 633d 203e adbd 8a3d bc3b 24be e6bc
00000090: 16bd bbbd 09bc 353d 8e3c 81b9 213d 57be
000000a0: c43b d33d f0bd afbd 54bd 783d ebbb a9bc
000000b0: 533c dbbd 37bc 0ebe 25bd a7bd 1dbd 19bd
000000c0: 723d 67bd 1b3d 853d cdbd f13b bdbc a1bc
000000d0: 5a3d d4bd b63d d73d d7bd d5bb ff3d 943d
000000e0: 4ebd a03d a9bd dfbd a63c ad3d f73c 513d
000000f0: 02bd 273c 29be 133e d1bc 243e 1abe 31bc
00000100: 1bbd 9ebd 9a3c 763d 473d 173d 923d 9cbd
00000110: 9ebc 28bc 97bd 8c3d 8a3c b9bd 1dbd dcbb
00000120: 84bd 823d f0bd ad3b eabd 4cbd 4f3e d8bc
00000130: 02be 06be 533b 513d 743d 743e 41bd e8bc
00000140: fe3d c4bc e2bc 40bd d6bd 85be d93d 5dbd
00000150: b03b f2bd 35bc bcbc 48bd 4dbe 783c bfbd
00000160: 8bbd 8c3d 85bd 823c 0ebd b43c 62bc c13d
00000170: a9bd 0abe 54bc 85bd 94bc 48bd 6dbc 923d
00000180: 983b 02bd 05be ba3c 9ebd e33d 18bd e63c
00000190: c13c 853d f43b c43d dbbd c5bd 0bbc dfbd
000001a0: a4bd 0abe 3bbe f5ba 013e dc3c 9bbc eb3d
000001b0: 4ebd 5a3d 1cbd ed3c 57be afbd 863b d63d
000001c0: 8a3d 093e 64be 113d 843d 033c e03d 84bd
000001d0: 87bd 083e fdbd ac3d d2bc 00bc 9c3d b33d
000001e0: 8d3d 8fbd c7bd 653c 07bd c03d 343d 573c
000001f0: 8cbd 10bd 8fbd c6bc ce3d a1bc cbbc 883d
-0.0078125 0.03149414 0.024902344 0.08935547 -0.10253906 0.036621094 0.08935547 -0.010192871
-0.057128906 -0.0059814453 -0.039794922 -0.00061798096 0.13671875 0.02758789 0.022216797 -0.11425781
0.009094238 0.07763672 -0.11230469 -0.008850098 0.0032043457 0.030273438 0.0048828125 0.003189087
0.040283203 -0.00074768066 0.021118164 0.10644531 -0.00579834 -0.0390625 0.016601562 -0.06982422
-0.076171875 -0.09814453 0.11035156 0.056884766 0.03173828 0.016845703 0.080078125 -0.103515625
-0.025390625 0.083496094 -0.12890625 0.020874023 0.00970459 0.05859375 -0.10839844 -0.14160156
-0.05517578 0.044433594 0.032714844 0.13183594 0.103515625 -0.022216797 0.03112793 0.111328125
-0.01171875 0.022338867 -0.01574707 0.088378906 0.0038604736 0.048339844 -0.016357422 -0.005706787
0.045654297 0.055419922 0.15625 -0.084472656 0.06738281 0.0057373047 -0.16015625 -0.028076172
-0.036621094 -0.091308594 -0.008361816 0.044189453 0.017333984 -0.00024604797 0.03930664 -0.20996094
0.0059814453 0.103027344 -0.1171875 -0.08544922 -0.051757812 0.060546875 -0.007171631 -0.020629883
0.012878418 -0.106933594 -0.011169434 -0.13867188 -0.040283203 -0.08154297 -0.038330078 -0.037353516
0.05908203 -0.056396484 0.037841797 0.064941406 -0.100097656 0.0073547363 -0.023071289 -0.01965332
0.053222656 -0.103515625 0.08886719 0.10498047 -0.10498047 -0.006500244 0.12451172 0.072265625
-0.05029297 0.078125 -0.08251953 -0.10888672 0.020263672 0.084472656 0.030151367 0.05102539
-0.03173828 0.010192871 -0.16503906 0.14355469 -0.025512695 0.16015625 -0.15039062 -0.010803223
-0.037841797 -0.07714844 0.018798828 0.060058594 0.048583984 0.036865234 0.07128906 -0.076171875
-0.01928711 -0.010253906 -0.07373047 0.068359375 0.016845703 -0.09033203 -0.038330078 -0.006713867
-0.064453125 0.06347656 -0.1171875 0.005279541 -0.11425781 -0.049804688 0.20214844 -0.026367188
-0.12695312 -0.13085938 0.0032196045 0.05102539 0.059570312 0.23828125 -0.04711914 -0.028320312
0.12402344 -0.023925781 -0.02758789 -0.046875 -0.10449219 -0.25976562 0.10595703 -0.053955078
0.0053710938 -0.11816406 -0.011047363 -0.022949219 -0.048828125 -0.20019531 0.015136719 -0.09326172
-0.067871094 0.068359375 -0.064941406 0.01586914 -0.03466797 0.021972656 -0.013793945 0.09423828
-0.08251953 -0.13476562 -0.012939453 -0.064941406 -0.018066406 -0.048828125 -0.014465332 0.07128906
0.004638672 -0.03173828 -0.12988281 0.022705078 -0.07714844 0.110839844 -0.037109375 0.028076172
0.02355957 0.064941406 0.007446289 0.095703125 -0.106933594 -0.096191406 -0.008483887 -0.10888672
-0.080078125 -0.13476562 -0.18261719 -0.0018692017 0.12597656 0.026855469 -0.018920898 0.114746094
-0.05029297 0.053222656 -0.038085938 0.028930664 -0.20996094 -0.08544922 0.0040893555 0.10449219
0.06738281 0.13378906 -0.22265625 0.03540039 0.064453125 0.0079956055 0.109375 -0.064453125
-0.06591797 0.1328125 -0.123535156 0.083984375 -0.025634766 -0.0078125 0.076171875 0.087402344
0.068847656 -0.06982422 -0.09716797 0.013977051 -0.032958984 0.09375 0.043945312 0.013122559
-0.068359375 -0.03515625 -0.06982422 -0.024169922 0.10058594 -0.01965332 -0.024780273 0.06640625
