textual_inversions/sdxl/cat2/learned_embeds.safetensors (safetensors, 3184 bytes, 1 tensors)

<cat2> f4 [1, 768]
00000000: 0692 de3d 2410 263d a41b 27bd eb42 77bd
00000010: cd13 953c ba9a 14bd 13e0 1d3d 9dc6 ce3d
00000020: 916f 78bd f4ce 1b3e 63e8 25bd 3d14 913d
00000030: c03b 0ebd bea0 6dbd 3efa 24be 19aa c43b
00000040: c477 10be 617e 3fbd 776f d0bd 63f8 783d
00000050: eefe 6fbd 5a24 42bd 4f69 5a3d a65b 7abd
00000060: 7e6b 013e 159a cabb 1ef4 21be d8a0 7ebc
00000070: b46a 693c bb51 75bd 1a58 f43c c36a 913c
00000080: bba9 77bc 7f20 a7bd 0284 553d 0402 8f3e
00000090: eeb0 2f3c 61db 263d 158a 08be b045 653d
000000a0: a83e 473d cd3a c5bb 3aae a3bd 28ec f7bc
000000b0: 6691 923d 9f7e c43d 7f29 06be 2141 76bd
000000c0: d1cc 01be 0e78 ca3d 50bc 093e d733 0f3d
000000d0: faa7 5f3d 8adc 353d e99a 09bd 9b45 0ebc
000000e0: c741 5cbc f6c7 ebbc 318d 163d b9fc 0e3d
000000f0: 3e2a 7f3c 0208 6dbc 19dd edbd 186a d5bd
00000100: 5c3b 05bd f7c2 d03c 5cf4 b1bd 816a 74bc
00000110: f8f3 15ba 0800 b13c 7dde 353c 9a7c 9b3b
00000120: fc3f d53d 4665 8f3c 9f2e 92bb c3f0 c43c
00000130: ef66 a93a bbbb cabd 6f4b f33d 3f8c 7abd
00000140: 0e92 d33d 4b4e d6bd 60ee 0c3c 8667 493b
00000150: a482 2639 8f5a 05bd b7ce 983d 6a12 eebd
00000160: 6ea1 c3bc 8256 d13d 5035 a13d de64 53bc
00000170: 57bc ac3b f1f5 5fbd fe37 51bc e6ee 6b3c
00000180: ad99 44bd 63a8 063e 086c ba3d 15c3 b9bc
00000190: 9013 e4bd d6b9 213d 7ccc 103d cff6 d4bd
000001a0: f414 0fbe 4a16 293d 5972 613d 0468 03bd
000001b0: ef2c 373d 8f5c 683c 61d6 ae3d 9f12 143d
000001c0: 8e86 e4bc 0595 b03b a0c9 5c3c ca59 9f3d
000001d0: 243c 573d 3469 9ebd 6f5b 9fbc c965 66bd
000001e0: 3a92 fdbd 781f ee3d a46c 643d 5f8d 00bd
000001f0: ba3e 443c e719 27bd 99e6 233d cba9 10bd
00000200: 5d48 c9bd 29b6 403d 2ee5 a1bd 0fc9 c83d
00000210: 8546 5dbd 6a89 c33c cdf5 533d b61a 273d
00000220: bdf9 523d 0a4f 8a3d b619 13bd 9763 b3bd
00000230: fbe0 b2bd 27bc 203e afbe 5ebd aa5f 693d
00000240: 83f6 903d fd4d 90bb fe4f 2dbe cb03 933c
00000250: 72d4 a73d 8512 61bd bcb2 d23c b922 2d3d
00000260: 06b3 09be 947d cd3c 1b51 ba3b 5a2d 99bd
00000270: ee5c a13d 0060 ca3c c4e5 89bd 04de 03bd
00000280: 7944 5f3d ce6d b13b 04d1 b83c 79e1 293d
00000290: 754d 693c 5c73 e63c 238a 913d 2dfd c63c
000002a0: 1026 a1bd b224 633d 39fd 053e 7a45 a1bc
000002b0: c8a5 80bd dbbc ed3b d7f1 9ebc 1a78 933d
000002c0: 583c 76bd 4997 2bbe 3bb4 cbbd c99a f5bd
000002d0: c8ce e83c 6db3 e83d 7662 cabc 4d50 7f3d
000002e0: 5f6c a2bd 2f65 00bc 1866 523d 8149 bd3d
000002f0: 2667 e4bd 0649 6fbd 409d 87bd f52c 24bd
00000300: 32f3 c73d d7a1 25be 9835 b63d e0d3 b5bd
00000310: c6fc e1bd f299 00bd 992f 993d 8d59 013e
00000320: bee0 633d d88a 443b d9d9 51bd 8425 c4bc
00000330: b342 bb3b 18d9 9bbc 1d55 953d abc8 d6bc
00000340: 0999 fcbd b602 163d 7b96 0f3e 2288 0c3d
00000350: e39e d7bc 8bb0 b4bc 550a c03c 82e6 94bc
00000360: aa10 e3bd 6e94 12bc ba3c 7c3d 6b58 32bd
00000370: 6b32 81bc ef19 9f3c 0e9e 03be 4d80 23bd
00000380: 8f6a 3cbc 6870 093d 6897 023e 1bba 30bd
00000390: a3b4 bfbc 1709 fdbd 18e9 9f3d 239e f8bd
000003a0: 3e35 a73d 9b55 a23d e66b 9cbd 9985 cb3c
000003b0: 5f70 223d e737 0f3d e336 19bc 3d2c 9abd
000003c0: 2b6c 18bc cdd7 c2bc feb9 21bd c575 a63d
000003d0: 0a60 80bd 987b cbbd bfb9 19bd bf8f a43d
000003e0: 9d5a 7e3d 9b58 57bd 928b b3bd ff64 6b3d
000003f0: 65a0 a23d afdd 85bd 5e87 2abe 42f5 7bbd
0.108676955 0.040542737 -0.040797845 -0.060366552 0.018197918 -0.03628037 0.038543772 0.10096476
-0.060653273 0.15215665 -0.040504824 0.07083938 -0.03472495 -0.058014624 -0.16111085 0.0060017225
-0.14108187 -0.046751384 -0.1017751 0.060783755 -0.05859273 -0.04739795 0.053323086 -0.06112256
0.12638661 -0.006182919 -0.1581578 -0.015541278 0.014246631 -0.059892397 0.029827166 0.017751103
-0.0151161505 -0.08160495 0.052127846 0.27931225 0.010723336 0.04073656 -0.13333924 0.055974662
0.048643738 -0.0060189725 -0.079922155 -0.030263975 0.07156639 0.095944636 -0.13101767 -0.060120706
-0.12675788 0.0988618 0.13450742 0.034961548 0.054603554 0.044399776 -0.033595 -0.008683587
-0.013443417 -0.028781872 0.036755744 0.034908984 0.015574036 -0.014467241 -0.11614437 -0.104206264
-0.032527313 0.025483591 -0.08689186 -0.014917971 -0.0005720253 0.02160646 0.011100409 0.0047450783
0.10412595 0.017504346 -0.004461124 0.024040585 0.0012924353 -0.09899088 0.11879622 -0.061168905
0.10330592 -0.10464152 0.008601755 0.003073187 0.00015879661 -0.032557067 0.07461303 -0.11624606
-0.023880687 0.10221578 0.07871497 -0.012902467 0.0052714753 -0.054677907 -0.012769697 0.01440022
-0.04799812 0.13150172 0.091026366 -0.02267603 -0.11136544 0.039483868 0.03535126 -0.103986375
-0.13972837 0.041281022 0.05504069 -0.03208162 0.044720586 0.014182224 0.08536983 0.03615057
-0.027896192 0.0053888583 0.0134758055 0.07780798 0.05254759 -0.0773491 -0.019452779 -0.056249414
-0.12381406 0.11627096 0.05576767 -0.031384822 0.011977846 -0.040796187 0.040014837 -0.035318177
-0.09828255 0.04704872 -0.07905041 0.09803974 -0.05402233 0.023869235 0.051748086 0.040796958
0.0515077 0.06753357 -0.03591319 -0.0875923 -0.08734318 0.15696774 -0.05438107 0.056975998
0.070782684 -0.004403828 -0.16925046 0.017946145 0.081948176 -0.054949302 0.025719993 0.042269442
-0.13447198 0.025084294 0.005685938 -0.07479353 0.07879053 0.02470398 -0.067332774 -0.032194152
0.05450866 0.005414701 0.022560604 0.041474793 0.014239659 0.02813118 0.071064256 0.024290645
-0.07868588 0.055454917 0.13084878 -0.01968645 -0.0628162 0.0072551793 -0.019402428 0.07200642
-0.060116142 -0.1675693 -0.099464856 -0.119924136 0.028418913 0.11362348 -0.024705153 0.06233244
-0.079308264 -0.007836624 0.051366895 0.092425354 -0.111524865 -0.05841925 -0.0662179 -0.040081937
0.09763183 -0.16175018 0.08896941 -0.088783026 -0.11034541 -0.031396814 0.07479782 0.12631817
0.055634253 0.0029989984 -0.051233146 -0.02394367 0.0057147383 -0.019024417 0.07291625 -0.026218733
-0.12333877 0.03662368 0.14022247 0.034309514 -0.02632088 -0.022056838 0.023442427 -0.018176321
-0.11087163 -0.008946521 0.06158135 -0.043541353 -0.015771111 0.019421546 -0.12853262 -0.03991728
-0.011500015 0.033554465 0.1275307 -0.043146234 -0.023401564 -0.123552494 0.07808131 -0.12139537
0.08164452 0.07926484 -0.076377675 0.024843978 0.039657947 0.034965422 -0.009351465 -0.07527969
-0.009303133 -0.023784542 -0.039484017 0.081279315 -0.06268318 -0.09935683 -0.037530657 0.0803523
0.062098134 -0.052574735 -0.08766855 0.057469364 0.07940749 -0.065364234 -0.16653201 -0.061513193
