textual_inversions/sdxl/cat2/learned_embeds_2.safetensors (safetensors, 2672 bytes, 1 tensors)

<cat2> bf16 [1, 1280]
000000 0f bd 19 bd 10 bd d8 bc 01 be 8a 3c d5 bb 89 3d
       -0.03491211 -0.037353516 -0.03515625 -0.026367188 -0.12597656 0.016845703 -0.006500244 0.06689453
000010 75 3d 36 3d a7 bd 04 bb a4 3a 74 bb a8 3c 86 bd
       0.059814453 0.044433594 -0.08154297 -0.0020141602 0.0012512207 -0.0037231445 0.020507812 -0.06542969
000020 40 3d 4b 3c fc bd d6 3d 38 bd fb 3d 15 3d 4a 3d
       0.046875 0.012390137 -0.123046875 0.10449219 -0.044921875 0.122558594 0.036376953 0.049316406
000030 e7 bd d4 3c 63 3d d2 bd 8c 3d fe bb e0 bd e9 bc
       -0.11279297 0.025878906 0.055419922 -0.10253906 0.068359375 -0.007751465 -0.109375 -0.028442383
000040 05 3e 8b 3b fb 3c 92 3c ad bd ca bd 90 3d ce bd
       0.12988281 0.0042419434 0.030639648 0.017822266 -0.084472656 -0.09863281 0.0703125 -0.10058594
000050 75 3d 03 3d 10 3c 01 be 5b 3d a5 3d bb bc 25 bd
       0.059814453 0.031982422 0.0087890625 -0.12597656 0.053466797 0.080566406 -0.022827148 -0.040283203
000060 9e bc 26 3d 6a bd 3f 3d 10 bd b9 3d 7a bc 60 3c
       -0.01928711 0.040527344 -0.057128906 0.04663086 -0.03515625 0.09033203 -0.015258789 0.013671875
000070 22 3d da 3d 85 bd d9 3d 0a 3d 68 3d e4 bd 1d bd
       0.03955078 0.10644531 -0.064941406 0.10595703 0.033691406 0.056640625 -0.111328125 -0.038330078
000080 14 3c 5c bd 60 3d 91 3b 83 3d c9 3d c4 bc 9e bc
       0.009033203 -0.053710938 0.0546875 0.004425049 0.063964844 0.09814453 -0.023925781 -0.01928711
000090 8d bd 03 be 96 bc e8 3c d8 bd 1a bc 0d be b0 bc
       -0.068847656 -0.12792969 -0.018310547 0.028320312 -0.10546875 -0.009399414 -0.13769531 -0.021484375
0000a0 2c 3d 7b bd 31 be c0 3d 63 bd de 3c 05 bd ca 3c
       0.041992188 -0.061279297 -0.17285156 0.09375 -0.055419922 0.02709961 -0.032470703 0.024658203
0000b0 3f bd 84 bb 00 be bd bc a7 bd 05 3c e2 bc ce bc
       -0.04663086 -0.0040283203 -0.125 -0.023071289 -0.08154297 0.008117676 -0.02758789 -0.025146484
0000c0 8c 3a 23 bc 40 bd dd 3d 09 bd e0 3d f3 3b da 3d
       0.0010681152 -0.0099487305 -0.046875 0.107910156 -0.033447266 0.109375 0.0074157715 0.10644531
0000d0 0a 3d 09 be 43 3d 2c bc f8 bd 2d 3e 10 3e 3b be
       0.033691406 -0.13378906 0.047607422 -0.010498047 -0.12109375 0.16894531 0.140625 -0.18261719
0000e0 81 3d 7d 3d 9c bd dc bd 47 3d 6e 3d 89 3c 6f 3d
       0.06298828 0.061767578 -0.076171875 -0.107421875 0.048583984 0.05810547 0.016723633 0.05834961
0000f0 a0 bc 79 3d 4a 3d 9c 3d bd bb a4 3c c1 3c 8a 3d
       -0.01953125 0.060791016 0.049316406 0.076171875 -0.0057678223 0.020019531 0.02355957 0.06738281
000100 8b 3d 18 bd b2 3d 17 3d 34 3e c6 3c 02 3d db bd
       0.067871094 -0.037109375 0.08691406 0.036865234 0.17578125 0.024169922 0.03173828 -0.106933594
000110 7e bc 7e 3b 49 3d bd bd 53 3d 4d 3d 9b bd b9 3d
       -0.01550293 0.0038757324 0.049072266 -0.092285156 0.051513672 0.050048828 -0.075683594 0.09033203
000120 78 bd 2f 3c ad bc d9 bd 42 3d 02 bd b9 bc 6b 3c
       -0.060546875 0.010681152 -0.021118164 -0.10595703 0.04736328 -0.03173828 -0.022583008 0.014343262
000130 02 be 92 bd 2f bd e2 3c 72 3c 75 3e eb bc 05 bd
       -0.12695312 -0.07128906 -0.04272461 0.02758789 0.014770508 0.23925781 -0.028686523 -0.032470703
000140 89 3d 48 3e dc 3c c8 bc c4 bc 7a be 08 3d 06 3d
       0.06689453 0.1953125 0.026855469 -0.024414062 -0.023925781 -0.24414062 0.033203125 0.032714844
000150 d9 bc 69 bd c0 bd b5 bc 40 bc 01 bc 29 3d 22 3d
       -0.026489258 -0.056884766 -0.09375 -0.022094727 -0.01171875 -0.007873535 0.041259766 0.03955078
000160 fc 3c 8b 3d a3 3c a4 3d 7f bd 8f 3d 58 bc 72 bc
       0.030761719 0.067871094 0.019897461 0.080078125 -0.06225586 0.06982422 -0.013183594 -0.014770508
000170 1e bc 4e bd c5 bc b3 bd c8 bd 2f bd 9d 3d 39 bb
       -0.009643555 -0.05029297 -0.024047852 -0.087402344 -0.09765625 -0.04272461 0.076660156 -0.002822876
000180 b0 bd 60 bd cc bd 04 bd 12 3c 7f 3c cd bd 38 bd
       -0.0859375 -0.0546875 -0.099609375 -0.032226562 0.008911133 0.015563965 -0.100097656 -0.044921875
000190 e8 3d b1 bb 1c bd 11 3e dc 3d 81 bd cb bc 0b be
       0.11328125 -0.0054016113 -0.038085938 0.14160156 0.107421875 -0.06298828 -0.024780273 -0.13574219
0001a0 91 bc 51 bd e4 bd 2e bd 2f 3e 19 ba ed bd 38 3d
       -0.017700195 -0.05102539 -0.111328125 -0.04248047 0.17089844 -0.0005836487 -0.115722656 0.044921875
0001b0 81 bd 33 3d 1b bd 37 bd 5c 3d 56 be 2f bd 4b bd
       -0.06298828 0.043701172 -0.037841797 -0.044677734 0.053710938 -0.20898438 -0.04272461 -0.049560547
0001c0 fa 3c 8f 3d 88 bd a8 bc dc 3c 0d 3d 28 3d 1d 3d
       0.030517578 0.06982422 -0.06640625 -0.020507812 0.026855469 0.034423828 0.041015625 0.038330078
0001d0 17 bd 30 be ca bb 37 bd 42 bd 02 3c 74 3d a0 3d
       -0.036865234 -0.171875 -0.006164551 -0.044677734 -0.04736328 0.00793457 0.059570312 0.078125
0001e0 42 3d d3 3d a4 bd a3 3c 00 be ad bd d0 3d f0 3b
       0.04736328 0.103027344 -0.080078125 0.019897461 -0.125 -0.084472656 0.1015625 0.0073242188
0001f0 33 bd d9 3a 46 3d e4 bb 98 3a 1b 3e 84 3e f1 3d
       -0.043701172 0.0016555786 0.048339844 -0.006958008 0.001159668 0.15136719 0.2578125 0.11767578
