textual_inversions/sdxl/watercolor/learned_embeds_2.safetensors (safetensors, 2680 bytes, 1 tensors)

<watercolor> bf16 [1, 1280]
000000 af 3c 6a bd 96 3a 28 be be bd 1e 3c 64 bc be bd
       0.021362305 -0.057128906 0.0011444092 -0.1640625 -0.09277344 0.009643555 -0.013916016 -0.09277344
000010 95 3c 13 bd 56 3d ea 3d b2 bc 8c bb 88 bc 8d 3c
       0.018188477 -0.035888672 0.052246094 0.11425781 -0.021728516 -0.004272461 -0.016601562 0.017211914
000020 48 3e c9 bc e2 bc 3c 3d 72 bc 0f 3e f6 3b 11 3d
       0.1953125 -0.024536133 -0.02758789 0.045898438 -0.014770508 0.13964844 0.007507324 0.03540039
000030 13 be 92 3b 19 3e 84 bd 5f 3c a8 bc a5 3d f3 bc
       -0.14355469 0.0044555664 0.14941406 -0.064453125 0.01361084 -0.020507812 0.080566406 -0.029663086
000040 a2 3b 03 3d 23 3d f3 3d 4f bd 12 bc af bd b7 bd
       0.0049438477 0.031982422 0.039794922 0.118652344 -0.05053711 -0.008911133 -0.08544922 -0.08935547
000050 2c bd 4c bd 3a bd a6 bd d2 3d 26 bd c5 3d e5 bd
       -0.041992188 -0.049804688 -0.045410156 -0.08105469 0.10253906 -0.040527344 0.096191406 -0.111816406
000060 67 3d 0e 3d aa 3d a1 3c 9a 3d cd bd 92 3e 3d 3d
       0.056396484 0.03466797 0.08300781 0.01965332 0.07519531 -0.100097656 0.28515625 0.046142578
000070 e0 3d 32 3d eb bc 98 bd 32 3d c8 bc cd 3c 94 bd
       0.109375 0.04345703 -0.028686523 -0.07421875 0.04345703 -0.024414062 0.025024414 -0.072265625
000080 1c bd dd bd af 3c d8 3d eb bc 7f bc a4 bc 5e bc
       -0.038085938 -0.107910156 0.021362305 0.10546875 -0.028686523 -0.015563965 -0.020019531 -0.013549805
000090 a8 bd 26 3d 99 3d 94 bd a1 3d 02 3d 59 3b bd 3d
       -0.08203125 0.040527344 0.07470703 -0.072265625 0.07861328 0.03173828 0.0033111572 0.092285156
0000a0 fe 3c 92 bd 6d be 83 3d ab 3c 56 3d 1c 3d bd bc
       0.03100586 -0.07128906 -0.23144531 0.063964844 0.020874023 0.052246094 0.038085938 -0.023071289
0000b0 1f be b7 3c 9b 3d 15 bb bf bc d5 3d ae bd bf bc
       -0.15527344 0.022338867 0.075683594 -0.0022735596 -0.02331543 0.104003906 -0.08496094 -0.02331543
0000c0 e8 bc df bd e7 bd 63 bd bd 3d 94 bc 47 3c 4c bd
       -0.028320312 -0.10888672 -0.11279297 -0.055419922 0.092285156 -0.018066406 0.012145996 -0.049804688
0000d0 1c 3c 8f 3d 0e 3d d8 bb c0 bd c5 3d 97 bb 28 bd
       0.009521484 0.06982422 0.03466797 -0.006591797 -0.09375 0.096191406 -0.0046081543 -0.041015625
0000e0 8a 3b c4 3d 6e 3b 0e 3d 5e bd 97 bb bd bc 04 be
       0.004211426 0.095703125 0.0036315918 0.03466797 -0.05419922 -0.0046081543 -0.023071289 -0.12890625
0000f0 51 3c 4c bb be 3c 50 3d 51 3c ff 39 92 3c 82 bd
       0.012756348 -0.003112793 0.02319336 0.05078125 0.012756348 0.0004863739 0.017822266 -0.06347656
000100 9b bd 36 bc 28 bd ce 3c 92 bc 0f 3c 70 3d 49 bd
       -0.075683594 -0.011108398 -0.041015625 0.025146484 -0.017822266 0.008728027 0.05859375 -0.049072266
000110 b8 bb a6 bd 60 3d f2 3d 47 bb 63 3d 23 bd f2 3d
       -0.0056152344 -0.08105469 0.0546875 0.11816406 -0.003036499 0.055419922 -0.039794922 0.11816406
000120 73 bd 51 3b 38 bd 1f bd 02 be e3 bd f2 3d 93 3a
       -0.059326172 0.003189087 -0.044921875 -0.03881836 -0.12695312 -0.110839844 0.11816406 0.001121521
000130 2e 3d 57 bd b5 3d 9f 3b ce bd 38 3e 33 bd bc bd
       0.04248047 -0.052490234 0.088378906 0.004852295 -0.10058594 0.1796875 -0.043701172 -0.091796875
000140 7e bc c9 3d 34 3d 89 bd 9f bd 5a be 4f 3d 2c 3d
       -0.01550293 0.09814453 0.043945312 -0.06689453 -0.07763672 -0.21289062 0.05053711 0.041992188
000150 33 be f3 bc c1 bd 9a 3d c9 bd a4 bd 7d bd e4 bc
       -0.17480469 -0.029663086 -0.09423828 0.07519531 -0.09814453 -0.080078125 -0.061767578 -0.027832031
000160 12 bd 8f bc aa bc 1c 3d 89 bd c9 bd 87 3d e0 bb
       -0.03564453 -0.017456055 -0.020751953 0.038085938 -0.06689453 -0.09814453 0.06591797 -0.0068359375
000170 2f 3d df bd 96 bb a7 bd 90 bd f8 bc 8f bd 8f bc
       0.04272461 -0.10888672 -0.0045776367 -0.08154297 -0.0703125 -0.030273438 -0.06982422 -0.017456055
000180 85 3d 0e 3d 8a ba f4 bd 54 be 37 3d 82 bd c7 3d
       0.064941406 0.03466797 -0.0010528564 -0.119140625 -0.20703125 0.044677734 -0.06347656 0.09716797
000190 8f 3d ca bb 32 bd 91 3d d0 3c d9 bb 34 3d 0e bd
       0.06982422 -0.006164551 -0.04345703 0.07080078 0.025390625 -0.0066223145 0.043945312 -0.03466797
0001a0 6d 3c 12 bd 96 bd 9b bc d2 3d 5c 3d b6 3c 65 bc
       0.014465332 -0.03564453 -0.07324219 -0.018920898 0.10253906 0.053710938 0.022216797 -0.013977051
0001b0 22 3d 5f 3d b0 bd 2c bd 9e 3c b6 bd 9c 3d 5c 3d
       0.03955078 0.05444336 -0.0859375 -0.041992188 0.01928711 -0.08886719 0.076171875 0.053710938
0001c0 24 bb 55 3c 19 3d 2c bc 3a 3c a7 bd 83 3d eb 3a
       -0.0025024414 0.013000488 0.037353516 -0.010498047 0.011352539 -0.08154297 0.063964844 0.0017929077
0001d0 ce bd 12 3d 01 3e 48 bd 60 3d 44 3d 1d bd 9e bd
       -0.10058594 0.03564453 0.12597656 -0.048828125 0.0546875 0.047851562 -0.038330078 -0.07714844
0001e0 8e bc a4 3c 16 be bf 3d 87 bd ab 3d 14 3d 89 bc
       -0.017333984 0.020019531 -0.14648438 0.09326172 -0.06591797 0.083496094 0.036132812 -0.016723633
0001f0 c9 3d 9d bd 0a 3d be bd 9a bd ee 3d a5 3d 83 bd
       0.09814453 -0.076660156 0.033691406 -0.09277344 -0.07519531 0.11621094 0.080566406 -0.063964844
