textual_inversions/sdxl/watercolor/learned_embeds.safetensors (safetensors, 3184 bytes, 1 tensors)

<watercolor> f4 [1, 768]
0	0x3da4a01b	0.0803835
1	0x3d1392f9	0.036028836
2	0xbbb41601	-0.005495787
3	0xbdabf8d0	-0.083970666
4	0xbd352dba	-0.04423306
5	0xbccf30f9	-0.025291907
6	0xbd9c1f39	-0.07623143
7	0xbb98f85f	-0.00466828
8	0x3d1f9fbd	0.038970698
9	0x3dbe61a3	0.092959665
10	0xbc946a29	-0.018117027
11	0xbc207a18	-0.009794734
12	0x3d089668	0.033346564
13	0xbc787013	-0.015163439
14	0x3d7d9bad	0.061916042
15	0x3daf1854	0.08549562
16	0xbcaabefb	-0.02084302
17	0xbd94c8b3	-0.07264843
18	0xbd05fea6	-0.032713555
19	0x3d25bc98	0.04046306
20	0xba576420	-0.0008216519
21	0xb92ebb92	-0.00016663808
22	0xbcddbd98	-0.027067944
23	0xbc7f4d31	-0.015582369
24	0x3d6bc34f	0.057559308
25	0xbda578ef	-0.08079707
26	0xbd0b31e5	-0.03398313
27	0x39e7465f	0.00044112184
28	0xbc164d2c	-0.009173673
29	0x3daaa2ab	0.08331808
30	0x3d25006d	0.04028361
31	0x3e04db65	0.12974317
32	0xbd8d9dec	-0.06914887
33	0xbde88ebd	-0.1135535
34	0xbdce3825	-0.100693025
35	0x3c433c3e	0.011916218
36	0x3d1d2f26	0.038375042
37	0x3e0c951f	0.1372876
38	0xbdbbec40	-0.091759205
39	0x3d0b6995	0.034036238
40	0xbd9c0c96	-0.07619588
41	0x3cfef1b4	0.031121112
42	0x3db5852f	0.088632934
43	0xbb5b3739	-0.0033449663
44	0x3d093100	0.033493996
45	0x3d07944c	0.03310041
46	0xbd4b489a	-0.049629785
47	0xbc078309	-0.008270987
48	0x3e38c038	0.18042076
49	0xbcd95218	-0.026528403
50	0xbd8d1a28	-0.068897545
51	0xbde2d5cb	-0.11075934
52	0x3cb123cc	0.021623515
53	0x3d765583	0.060140144
54	0xbd1a2746	-0.03763511
55	0xbd37298c	-0.044717357
56	0xbd466423	-0.04843534
57	0xbdec56e8	-0.115400136
58	0x3d977ed0	0.073972344
59	0x3e026a8d	0.12735958
60	0x3953289d	0.00020137658
61	0x3d495248	0.049150735
62	0xbb305fa6	-0.002691248
63	0xbdd3ab5f	-0.10335421
64	0x3cec9d3e	0.028883573
65	0xbdbb2eb8	-0.0913977
66	0x3dc1d26c	0.09463963
67	0x3d3bd3cd	0.045856286
68	0x3c7c752e	0.015408797
69	0x3dc61530	0.0967201
70	0xbcd1bcb1	-0.02560267
71	0x3cd5e411	0.026109727
72	0x3d54cd77	0.05195376
73	0xbcb81e26	-0.022475313
74	0xbd91043c	-0.07080886
75	0x3c420480	0.011841893
76	0xbe144d09	-0.14482512
77	0xbd739174	-0.059464887
78	0x3db54f4d	0.08853016
79	0x3dbe622e	0.0929607
80	0xbd61f1a4	-0.055162087
81	0xbdb9ce60	-0.09072566
82	0xbde0cd39	-0.10976643
83	0xba38dc03	-0.0007051827
84	0xbd07b431	-0.03313083
85	0xbd1eb980	-0.038751125
86	0x3d4d851d	0.050175775
87	0xbd21286d	-0.039345194
88	0x3cc0f279	0.02355312
89	0x3b956373	0.0045589744
90	0x3d8c7434	0.068581015
91	0x3dd6b45e	0.10483621
92	0x3d33cd30	0.043896854
93	0xbc854398	-0.016267583
94	0xbd97b270	-0.07407081
95	0x3c1dc605	0.009629731
96	0xbe01a441	-0.12660314
97	0x3ca02f16	0.019553702
98	0xbd913fe3	-0.070922635
99	0x3d3852b9	0.045000765
100	0x3c8265c9	0.015917676
101	0x3d2365a2	0.039891846
102	0x3b78b127	0.0037947388
103	0xbe145c6e	-0.14488384
104	0xbc9c8167	-0.019104673
105	0xbd3df0f6	-0.046372376
106	0x3db3412d	0.08752666
107	0x3dca6eba	0.09884401
108	0x3d31a023	0.04336561
109	0x3b7d0ba2	0.003861167
110	0xbd1c1121	-0.038102273
111	0xbc0856bb	-0.008321459
112	0x3d50b546	0.050954126
113	0x3d67f6fd	0.05663203
114	0x3c803892	0.015651975
115	0xbc8bebfb	-0.017080298
116	0xbc8cc915	-0.017185727
117	0xbcd8aeac	-0.026450478
118	0x3d72dce9	0.059292708
119	0x3cda37f8	0.026638016
120	0x3c71b19a	0.014751816
121	0x3e08a4b6	0.13344082
122	0xbcd77db6	-0.02630506
123	0x3d80acc2	0.06282951
124	0xbaf8010a	-0.0018921208
125	0xbbbfa109	-0.0058480543
126	0xbd63e1cf	-0.05563527
127	0xbdb9ae21	-0.090664156
128	0xbe075f19	-0.1321987
129	0x3d83708f	0.06417953
130	0xbbeffdfc	-0.0073239785
131	0x3c23f786	0.010007745
132	0xbe008589	-0.1255094
133	0xbd24927f	-0.040178772
134	0x3d3ec552	0.046574898
135	0xbd9f3c63	-0.0777519
136	0x3d727fcc	0.059203908
137	0xbd56ad90	-0.052411616
138	0x3dcf6d23	0.10128238
139	0x3c4fcf45	0.012683694
140	0x3dd298ba	0.102830365
141	0xbd0ce102	-0.03439427
142	0x3d8bcf9f	0.0682671
143	0xbc737d51	-0.014861421
144	0x3e51de95	0.20495065
145	0x3c35df73	0.011100638
146	0xbbc40c15	-0.0059828856
147	0x3d0daf3e	0.034590952
148	0x3de0edd7	0.10982864
149	0xbd0a569f	-0.033774015
150	0xbd580012	-0.052734442
151	0x3e26cc6b	0.16288917
152	0xbdba3a6b	-0.090931736
153	0xbb3e58cb	-0.0029044624
154	0x3e293797	0.16525112
155	0x3ca2d275	0.019875744
156	0xbb864a19	-0.0040981886
157	0xbd81c3d4	-0.063361794
158	0x3d0d9fb5	0.034576137
159	0x3a899e07	0.0010499366
160	0x3ca64b0e	0.02029946
161	0x3cd97590	0.026545316
162	0x3bbd3685	0.0057743215
163	0x3dd69c95	0.104790844
164	0xbcc05b42	-0.023481015
165	0xbcf419c8	-0.02979745
166	0x3c4ef2ac	0.0126311
167	0x3da2ee45	0.079556026
168	0x3c3de184	0.011589412
169	0xbe0c6ac8	-0.13712609
170	0xbd8f18f0	-0.06987178
171	0x3d939d8d	0.07207785
172	0x3c945ef8	0.01811169
173	0xbd74da14	-0.059778288
174	0xbc9f075e	-0.019412693
175	0x3d38c75e	0.045112006
176	0xbe0e0ee9	-0.13872875
177	0xbd85f1bc	-0.06540248
178	0x3e1e0d90	0.15434861
179	0x3d565033	0.052322578
180	0x3da0b076	0.07846157
181	0x3de346c5	0.110974826
182	0x3d585524	0.05281557
183	0xbd1fb944	-0.038995042
184	0x3de81c68	0.11333543
185	0xbd9bd780	-0.07609463
186	0xbcf04ece	-0.029334452
187	0x3c9dd582	0.019266848
188	0xbe4d9fdb	-0.20080511
189	0x3dafaeb5	0.085782446
190	0x3d2cf957	0.042229977
191	0x3d41c544	0.047307268
192	0xbd1c50de	-0.03816306
193	0x3ccf4812	0.02530292
194	0xbd9e13d9	-0.077186294
195	0x3d9e13b9	0.077186055
196	0x3db1f9f2	0.086902514
197	0x3c20d6a8	0.009816803
198	0x3d9e3ade	0.07726072
199	0x3dbc576c	0.09196362
200	0x3ddbf9f2	0.10741033
201	0xbd80478f	-0.06263649
202	0xba8c2dcb	-0.00106948
203	0xbcfbf176	-0.030754786
204	0x3d780226	0.060548924
205	0x3c5b58b0	0.013387844
206	0xbd734b96	-0.059398256
207	0x3c4c35f8	0.012464039
208	0xbd00a725	-0.0314094
209	0x3e0fa372	0.14027193
210	0x3dbbbbb6	0.091666624
211	0xbc59e82f	-0.013299986
212	0x3d0c40af	0.034241375
213	0xbdc0e499	-0.094186015
214	0xbcf948af	-0.030430166
215	0x3d34009c	0.043945894
216	0x3d861084	0.06546119
217	0x3cecface	0.028928187
218	0x3d078519	0.033085916
219	0xbd93d893	-0.07219043
220	0xbcb7c831	-0.022434326
221	0x3dad4d8d	0.08462057
222	0x3bf8fb96	0.0075983508
223	0x3d5f3ecf	0.05450326
224	0x3cf07855	0.029354254
225	0x3d2c3236	0.042040072
226	0xba526616	-0.0008026076
227	0x3bc3d5a4	0.0059763957
228	0xbda9e0fa	-0.08294864
229	0x3d09d15f	0.033646937
230	0x3bd521e1	0.006504283
231	0xbd7efd50	-0.062253296
232	0xbce8559a	-0.02836113
233	0xbd48f677	-0.049063172
234	0x3ccfaccd	0.025350953
235	0x3d9170a5	0.07101563
236	0x3d858e28	0.06521255
237	0x3d2797e0	0.040916324
238	0x3da78f72	0.08181657
239	0xbe780f86	-0.24224672
240	0xbd90d0a6	-0.070710465
241	0xbd1e3dcf	-0.038633164
242	0xbd472bfb	-0.048625927
243	0xbd1d74ce	-0.03844147
244	0x3d9e93d0	0.07743037
245	0xbdab5c52	-0.08367218
246	0x3b922f10	0.0044611767
247	0xbb3b374d	-0.0028566897
248	0x3da28a39	0.0793652
249	0x3d4ade6f	0.049528535
250	0x3d08e3e6	0.033420466
251	0x3cd9daa0	0.026593506
252	0xbc3c8d1c	-0.0115082525
253	0xbc83e7e4	-0.016101785
254	0xbbc75ce4	-0.0060840715
255	0xbd2734f6	-0.04082199
