textual_inversions/sd2/vase/learned_embeds.safetensors (safetensors, 4208 bytes, 1 tensors)

<vase> f4 [1, 1024]
00000000: c019 df3d 9eac c43c ea12 113b 7b75 b1bc
00000010: b49d a5bc b517 003d 1064 c0bc 92c8 023e
00000020: 406a a53d e0e0 c23d 6ac0 38bd c80d c6bd
00000030: fa7a 7abc f90f 713d a438 c1bb 4b6e 42bb
00000040: c899 a3bc cfdb 00be e2b9 02bd 449a 8f3d
00000050: f090 b8bc dff2 21bd 696a dabd ab2b ec3c
00000060: 0861 d1bc fd76 933d 15b4 cebc 8fb1 85bd
00000070: 244f 8fbd 6506 f23b f2b5 393d 75aa f1bd
00000080: 572d 94bd 20fa a4bd 7930 c2bc eac4 8bbd
00000090: c9e3 d4bc 9088 043d 92a2 12bd 4bb8 243d
000000a0: 4bcc aabd ef69 55bc 9ec9 2f3e bc0c 2ebd
000000b0: 44c0 f4bd 87b0 80bd 531d b73d c026 23bd
000000c0: c020 01bd 7a98 e6bd 7070 0e3d e2d3 e4bb
000000d0: ea84 3fbd 5682 ccbd f9c3 c4bd cada 453d
000000e0: 5322 a73d f6a7 573c 980f bbbc 6598 083c
000000f0: ca44 133d 159e b73d 5c58 633b fba4 c5bc
00000100: a067 003d 4260 89bd e954 90bc acac 69bd
00000110: 37a8 b63d 8d03 c13d 28fe 50bc 9144 093e
00000120: 16c9 203d f626 6abd d5f4 9abd b074 9a3d
00000130: 8595 083c 3e89 1a3d 71d5 7b3c 5c9f 623d
00000140: 35a7 323a e639 66bd f4ad c43d cd30 50ba
00000150: 0f03 34bd 07a8 c83b 0663 d33d 6961 993d
00000160: 381e 3e3c 6542 ba3c 8bf7 dbbd fedc 9e3c
00000170: fbc8 93bd 37b2 7d3c 5880 663d 676e 36bd
00000180: ba32 803d 079b 313d 16ed e03c 23fd c8b9
00000190: 7c4a 463c 219c 2bbd b435 1fbd 9dba f2bc
000001a0: 9910 a53c 5980 2cbd 3540 b43d 16f5 e63c
000001b0: 9e89 5b3d eac1 e53c 0b04 913c b702 493d
000001c0: 5e79 a7bd 9e08 1cbc 41c2 efbc bbc7 acbd
000001d0: 7601 053c 59db a3bb de72 5e3d 2780 9d3d
000001e0: a3f9 b0bc a75b a93d aad2 c83c 3eb7 573c
000001f0: 80ec b33c 3a5f acbc bf8c 493c a02b 69bc
00000200: fb84 b4bd 703f adbd a8c1 493d 4492 09be
00000210: 3dc3 8dbd c3ce 0c3c f0c8 1a3e 8b9d 313c
00000220: ea61 fcba 96a8 cebb f807 e7bd d683 8dbc
00000230: aa45 09be 86de 92bd 4a40 233b 7f88 473d
00000240: 9a07 123d cfa4 a3bd 25c5 0bbd 7319 29be
00000250: bdc3 413e 52f8 1f3c 9ac1 28bd 0176 d63d
00000260: 395c b63d 0fb9 31bd 9e45 233d 8f46 ab3d
00000270: ff8c 37bc b3b0 483d 6868 bebd 69dd a0bc
00000280: 68dd 023e 7e81 ab3d e761 b7bd 1625 a03d
00000290: f776 533d 9f75 433d 2ee4 adbd fe13 03bd
000002a0: 1234 acbd 189d e6bd e20b acbd 78b9 a9bd
000002b0: 3247 103d 562f 993d 1492 2bbd 7d68 e03c
000002c0: 3e91 d13c 5c57 5cbd f83f c1bb 3522 54bd
000002d0: 8601 e2bd c1f1 22bd 9c8a b43d bfb5 83bd
000002e0: 875c 853d 0809 713c 6e12 83bd a219 a9bc
000002f0: 81e1 cebd 31be 4f3d c46e 593d 0f7c 3e3c
00000300: 8874 82bc 120c 343d f23c 92bd 09cf 09bd
00000310: 61e6 1dbc 2c7e 513d b20b 233a ae73 a43d
00000320: 43c1 d7bd 8362 823c 0ad9 9eb9 041a 633d
00000330: 3f82 9fbc e55f d33d d855 f0b9 1740 0abd
00000340: 46b2 a43c 674a 793d 0a6f 233d dc3d 843d
00000350: 3b23 31bd f5f2 823d 622e 33bd 18ae a93d
00000360: 1a99 233e b63c 49bd 951c 413d 5355 0d3e
00000370: 125f b83d 369e 18be 94a1 a7bd cbc1 5d3c
00000380: 3c2e a03b 03ef 0cbc ce62 e43d 06ba edbd
00000390: 1bfb 65bb 6992 72bd e163 3d3d 28bb 823d
000003a0: ec86 db3c 852c 09bd 40c3 793c 8c14 05bd
000003b0: 42d9 31bd 2fcb d13d 144d ab3d f9f5 db3d
000003c0: 19e9 e4bd bbc5 4bbd 98d0 42bd a796 aa3d
000003d0: 39a2 c2bd 7bdd 3a3d 527f a83d 0083 023d
000003e0: 0248 a2bd 6b1b 883c e5e7 843d b2bd 9a3d
000003f0: 10f9 4ebb b709 8d3c 67e3 29bd d214 d0bc
0.10893583 0.024008092 0.0022136518 -0.021662464 -0.0202168 0.03127261 -0.023485214 0.12771824
0.08076906 0.09515548 -0.045105375 -0.09670597 -0.015288109 0.058853123 -0.0058966447 -0.002966779
-0.01997079 -0.1258385 -0.031915553 0.07011846 -0.02253005 -0.03953826 -0.106648274 0.028829416
-0.025558963 0.072004296 -0.025232354 -0.06528007 -0.06997517 0.007386016 0.045339532 -0.1180009
-0.072352104 -0.0805552 -0.023704754 -0.06824668 -0.025987523 0.0323568 -0.03579957 0.040214818
-0.08339747 -0.013025745 0.17166755 -0.042492613 -0.11950734 -0.0628367 0.0894114 -0.039831877
-0.031525373 -0.11259551 0.034775198 -0.006983266 -0.046757616 -0.09985797 -0.09607691 0.048304357
0.08160844 0.013162604 -0.022834584 0.008337115 0.035954274 0.08965699 0.0034690117 -0.02412652
0.031348825 -0.06707813 -0.017618613 -0.05704944 0.08918803 0.094245054 -0.012755908 0.13405062
0.03925427 -0.057166062 -0.07566229 0.075417876 0.0083364295 0.03772854 0.015370713 0.05532776
0.0006815077 -0.05620756 0.096034914 -0.0007941842 -0.04394823 0.006123546 0.103216216 0.07489283
0.011603884 0.022736738 -0.107405744 0.019392487 -0.07216068 0.015484384 0.056274742 -0.04453888
0.06259675 0.043360736 0.027456801 -0.00038335574 0.012102719 -0.041896943 -0.038869575 -0.02963
0.020149516 -0.04211459 0.08801309 0.028193038 0.05359804 0.028046567 0.017702123 0.049074855
-0.08177446 -0.009523539 -0.029267432 -0.08436533 0.008118024 -0.0050005135 0.054308765 0.07690459
-0.021603411 0.082694344 0.024514515 0.013166247 0.021963358 -0.021041501 0.012301623 -0.014231592
-0.088144265 -0.08459365 0.04925695 -0.13434702 -0.06922004 0.008594218 0.15115714 0.010840784
-0.0019255255 -0.006306718 -0.11280817 -0.017274778 -0.13405481 -0.07171349 0.0024910145 0.048714157
0.03565178 -0.07990419 -0.03412356 -0.16513614 0.18922324 0.009763794 -0.041200258 0.10471726
0.08904309 -0.043389376 0.039861314 0.08363067 -0.01120305 0.04899664 -0.09297258 -0.019636827
0.12779772 0.08374308 -0.0895422 0.078195736 0.051627126 0.047719594 -0.084907874 -0.032001488
-0.08408369 -0.11260432 -0.08400704 -0.082873285 0.035224147 0.07479732 -0.041887358 0.027393574
0.025581952 -0.05379425 -0.0058975182 -0.051790435 -0.11035447 -0.039781336 0.088155 -0.0643115
0.06511789 0.014711626 -0.063999996 -0.020642105 -0.10101605 0.05071849 0.05308415 0.011626258
-0.015924707 0.043956824 -0.07140531 -0.03364471 -0.009637446 0.051145718 0.0006219699 0.08029877
-0.105349086 0.015916115 -0.00030297815 0.055444732 -0.019471286 0.10321025 -0.00045840326 -0.033752527
0.020104539 0.06086197 0.039900817 0.06457111 -0.04324649 0.063939966 -0.043745406 0.08285159
0.15976372 -0.049130164 0.0471464 0.1380208 0.09002508 -0.14904103 -0.081851155 0.013534973
0.004888324 -0.008601907 0.11151658 -0.11607747 -0.0035092297 -0.05922166 0.04623783 0.063833535
0.026797734 -0.033489723 0.015244305 -0.0324903 -0.043420084 0.10243832 0.08364311 0.10740275
-0.11177272 -0.049749117 -0.04756221 0.08329516 -0.09503598 0.045621376 0.082274094 0.031863213
-0.07923891 0.016614636 0.06489543 0.07555713 -0.0031581558 0.017216546 -0.041476633 -0.025400553
