textual_inversions/sd2/wearable_glasses/learned_embeds.safetensors (safetensors, 4216 bytes, 1 tensors)

<wearable_glasses> f4 [1, 1024]
0.0063371374 0.053545848 -0.023586059 0.01823668 0.0018359598 -0.025914099 0.0038593397 -0.024673425
0.057235345 -0.008912934 0.037961613 -0.013761729 -0.008290878 -0.0017902228 0.041608866 0.029438216
-0.029997546 -0.0049052774 -0.03643783 0.028986145 0.022508033 0.024382176 -0.041470274 -0.04814723
-0.020905415 0.006981995 0.041917887 0.045486182 -0.047774915 -0.032152347 0.0020757571 0.034850124
-0.058844432 0.004467002 0.0027442772 -0.043496896 0.031426772 -0.054576613 -0.045879073 0.02345873
0.0064079217 -0.0020087063 0.014468269 -0.030278653 0.018625515 0.040761627 -0.028388387 -0.038413245
0.04069654 0.0076572946 -0.0019168482 0.027156543 -0.029030504 0.03831217 -0.009352658 -0.013586567
0.088840954 0.002524477 0.0027219248 0.012829668 0.034989424 -0.03872428 -0.025657812 -0.052020356
0.00023807057 0.03305519 -0.0016138615 0.014147215 0.027721087 -0.039088134 0.022317883 -0.015843606
-0.031935144 -0.02470758 0.005191869 -0.0022769582 0.026168399 0.012287255 -0.0037145042 -0.03761605
-0.015611836 -0.003612741 0.0060001533 -0.0021390507 -0.0026691344 0.027209044 0.008509517 -0.08460246
0.011759491 -0.074641794 -0.03840366 -0.011113104 0.025322774 -0.00045512404 0.023098888 0.01267518
-0.055086646 0.0030164034 0.013762356 -0.02494374 -0.032550734 0.03687924 -0.026220087 0.05451631
0.013288573 0.016130894 0.019664243 -0.036296997 -0.0044114455 0.03385131 0.010484501 -0.02837086
-0.03399964 -0.030362606 0.014008992 0.01980165 -0.001820914 0.031864632 -0.012892954 0.032178655
-0.029891293 0.0213996 0.0218096 -0.01667445 0.025446592 -0.008796235 -0.045050874 -0.014065914
0.0076872176 -0.044063803 0.00292561 0.03438346 0.045916457 0.02913702 -0.02910408 -0.016051373
0.025564343 0.049559772 0.045467235 0.06469893 0.013605481 -0.021646727 0.023574991 0.0078611
-0.034995943 0.050929457 -0.04707295 -0.017439464 -0.0004605398 -0.029653328 -0.021979898 -0.0033779712
0.011963234 0.011716487 0.009589799 0.005410333 -0.054690767 0.018343475 -0.02937956 0.015193228
0.05214794 -0.019952292 -0.0061883507 0.008856816 -0.003588287 -0.028890103 0.019301629 -0.002984803
-0.09632493 0.040847007 -0.0016025933 0.019824374 -0.0054339287 -0.007463413 -0.04857663 -0.015792586
-0.0020916082 0.02284824 0.00047256445 0.021246215 -0.031708486 -0.0151518 -0.0024791416 -0.06573211
0.047031954 0.017839614 -0.028846506 0.035663974 0.03184111 0.019851778 0.015670933 -0.007906437
-0.030269487 0.019143522 0.0012683071 -0.00013613439 0.03342125 0.032484952 -0.006735451 0.029417446
0.016359465 -0.022572419 0.021467818 0.014405817 0.04303786 -0.038982973 0.07866684 0.023694081
-0.02435341 0.09916145 -0.049872234 0.007647508 0.032681916 -0.036254533 -0.027945621 -0.0071908073
0.031958017 0.018464673 0.04058881 0.046468597 0.008866983 0.027959296 -0.03519268 0.029262476
0.0147206625 0.009039265 -0.031317607 -0.021218438 0.031684414 -0.045206636 -0.023612289 -0.007081192
-0.03206243 0.03969195 0.0047194106 0.045482494 -0.023600101 -0.031784125 0.021756444 -0.02394815
0.06232636 -0.0024087396 -0.0072835856 -0.012913849 -0.01027562 0.011425416 -0.02061744 -0.039584775
0.02825487 -0.029656505 -0.09203069 0.051079396 0.018075658 0.020707289 -0.02092318 -0.01180466
00000000: c3a7 cf3b e452 5b3d 8d37 c1bc 1765 953c
00000010: 97a4 f03a ce49 d4bc faec 7c3b ec1f cabc
00000020: 9c6f 6a3d 8e07 12bc a37d 1b3d e078 61bc
00000030: 76d6 07bc e9a5 eaba 0f6e 2a3d 6a28 f13c
00000040: 6abd f5bc 73bc a0bb d63f 15bd 5a74 ed3c
00000050: c462 b83c 21bd c73c bcdc 29bd 0836 45bd
00000060: d541 abbc 38c9 e43b 17b2 2b3d b84f 3a3d
00000070: a1af 43bd 2eb2 03bd 6d09 083b 01bf 0e3d
00000080: dc06 71bd ee5f 923b 55d9 333b cd29 32bd
00000090: 5cb9 003d ba8b 5fbd b2eb 3bbd 862c c03c
000000a0: 8bf9 d13b 80a4 03bb 520c 6d3c f00a f8bc
000000b0: 8994 983c aaf5 263d c38e e8bc 3557 1dbd
000000c0: 6ab1 263d 0bea fa3b c13e fbba 6677 de3c
000000d0: 61d1 edbc 39ed 1c3d e43b 19bc 319a 5ebc
000000e0: 3ff2 b53d b271 253b 5262 323b 8733 523c
000000f0: 1251 0f3d 5a9d 1ebd 5530 d2bc 4c13 55bd
00000100: 95a2 7939 e164 073d 3588 d3ba b8c9 673c
00000110: 5517 e33c e11a 20bd fed3 b63c 73ca 81bc
00000120: 6dce 02bd 8d67 cabc 8e20 aa3b 0539 15bb
00000130: 1c5f d63c 7c50 493c 0a6f 73bb 4a13 1abd
00000140: c9c8 7fbc bcc3 6cbb ef9c c43b 512f 0cbb
00000150: a5ec 2ebb 80e5 de3c 806b 0b3c 0e44 adbd
00000160: e1aa 403c ccdd 98bd 284d 1dbd bd13 36bc
00000170: b571 cf3c b79d eeb9 e139 bd3c 8fab 4f3c
00000180: 89a2 61bd daae 453b 817b 613c d056 ccbc
00000190: eb53 05bd b00e 173d 82cb d6bc 7f4c 5f3d
000001a0: 51b8 593c f024 843c e816 a13c 29ac 14bd
000001b0: e38d 90bb aca7 0a3d 2fc7 2b3c 016a e8bc
000001c0: 3543 0bbd 00bb f8bc f985 653c 1237 a23c
000001d0: bcab eeba 7d84 023d f83c 53bc c4cd 033d
000001e0: 96de f4bc 374e af3c 0caa b23c db98 88bc
000001f0: 5f75 d03c 151e 10bc 4487 38bd b874 66bc
00000200: 0ee5 fb3b 3f7c 34bd 97bb 3f3b acd5 0c3d
00000210: e512 3c3d c3b0 ee3c ae6b eebc 2b7e 83bc
00000220: 506c d13c 30ff 4a3d da3b 3a3d df80 843d
00000230: 86e9 5e3c 7a54 b1bc 5720 c13c d8cb 003c
00000240: e857 0fbd 689b 503d 91cf 40bd 35dd 8ebc
00000250: 9b74 f1b9 89eb f2bc 300f b4bc f460 5dbb
00000260: 7101 443c 82f6 3f3c 881e 1d3c 2a49 b13b
00000270: 6d03 60bd 0e45 963c 67ad f0bc 04ed 783c
00000280: 1499 553d fd72 a3bc a6c7 cabb 2e1c 113c
00000290: 7729 6bbb f0aa ecbc 731e 9e3c af9c 43bb
000002a0: 0146 c5bd 314f 273d 1c0e d2ba ba66 a23c
000002b0: 190f b2bb a58f f4bb 4af8 46bd 745f 81bc
000002c0: 5d13 09bb 3b2c bb3c 87c2 f739 8b0c ae3c
000002d0: c2e0 01bd 413f 78bc 1879 22bb 8e9e 86bd
000002e0: 94a4 403d 6224 923c 824f ecbc 6314 123d
000002f0: d36b 023d 32a0 a23c 5460 803c 008a 01bc
00000300: b7f7 f7bc e0d2 9c3c 533d a63a 4cbf 0eb9
00000310: b8e4 083d f10e 053d 0fb5 dcbb dbfc f03c
00000320: 4904 863c cbe9 b8bc 47dd af3c 6006 6c3c
00000330: 7848 303d 9cac 1fbd 151c a13d 171a c23c
00000340: cd80 c7bc 2915 cb3d d446 4cbd f297 fa3b
00000350: 79dd 053d a27f 14bd 37ee e4bc dda0 ebbb
00000360: 69e6 023d 3a43 973c 7440 263d db55 3e3d
00000370: d246 113c e50a e53c 3326 10bd dcb7 ef3c
00000380: ef2e 713c 6d19 143c e446 00bd 4ad2 adbc
00000390: 84c7 013d 982a 39bd 8f6e c1bc 5809 e8bb
000003a0: e553 03bd 0794 223d 49a5 9a3b da4b 3a3d
000003b0: 0055 c1bc 1230 02bd 923a b23c e92e c4bc
000003c0: ed49 7f3d f2db 1dbb 25ab eebb 9c94 53bc
000003d0: 135b 28bc ab31 3b3c e8e5 a8bc a523 22bd
000003e0: c276 e73c 33f2 f2bc 967a bcbd a138 513d
000003f0: 6713 943c 55a2 a93c 1767 abbc 5568 41bc
