textual_inversions/sdxl/flower_1/learned_embeds.safetensors (safetensors, 3184 bytes, 1 tensors)

<flower_1> f4 [1, 768]
0	0x3bd2e731	0.0064362516
1	0x3d999252	0.074986115
2	0x3c824a82	0.015904669
3	0xbe42112f	-0.18951868
4	0x3d50990a	0.0509272
5	0x3d4f4daa	0.050611176
6	0xbcc1148f	-0.023569373
7	0xbcc71c1e	-0.0243054
8	0xbd64827e	-0.05578851
9	0x3ba806b1	0.005127751
10	0xbc9eb74f	-0.019374518
11	0xbd402ee3	-0.046919715
12	0x3c06847c	0.008210298
13	0xbd0de9d0	-0.03464681
14	0xbdfeef8f	-0.12448036
15	0x3d1bbc75	0.038021524
16	0xbdca936b	-0.09891399
17	0x3d16ec14	0.036846235
18	0xbc835a88	-0.01603438
19	0x3dfcfcac	0.12352881
20	0x3ba94dc9	0.0051667434
21	0xbd2ce788	-0.042212993
22	0xbc832d04	-0.016012676
23	0x3c4c95c8	0.0124868825
24	0x3d8fdc0c	0.070243925
25	0xbd8eeea5	-0.069791116
26	0xbc67fe8a	-0.014159808
27	0xbc939f4c	-0.018020295
28	0xbd884199	-0.06653137
29	0xbdc11e01	-0.09429551
30	0xbcecee11	-0.028922113
31	0xbda95564	-0.0826824
32	0xbd1d358a	-0.038381137
33	0x3d4ac83a	0.049507357
34	0xbcceaf11	-0.025229963
35	0x3e8c9b52	0.2746225
36	0x3c6187ff	0.013765334
37	0x3c5c5929	0.013448992
38	0xbd57bfe3	-0.05267323
39	0x3d82e2e2	0.06390931
40	0xbd80faec	-0.062978595
41	0xbd93ccab	-0.07216772
42	0xbcd4871c	-0.025943331
43	0xbc314761	-0.010820241
44	0xbc37da1d	-0.011221436
45	0xbc0a1468	-0.008427717
46	0xbd563556	-0.05229696
47	0xbcc40a48	-0.023930684
48	0x3d2b8298	0.04187259
49	0xbcc18321	-0.023622097
50	0xbd9b82ed	-0.075933315
51	0x3a95d60a	0.0011431586
52	0x3d8fc86e	0.07020651
53	0xbe12c004	-0.1433106
54	0xbc4cf36a	-0.012509206
55	0xbbd84624	-0.0066001583
56	0x3ce93785	0.028468857
57	0xbd8e01fc	-0.06933972
58	0x3c29fbf4	0.010375012
59	0x3cf2d9cf	0.029644875
60	0xbd7efbda	-0.062251903
61	0xbc6ec87d	-0.014574167
62	0x3c682c6b	0.014170746
63	0xbd3b5658	-0.04573664
64	0xbc8558cb	-0.016277691
65	0xbca6ac03	-0.020345693
66	0xbdb35f15	-0.0875837
67	0xbdc95323	-0.0983031
68	0xbd0b2426	-0.03397002
69	0xbd599f82	-0.053130634
70	0x3c2a7403	0.010403636
71	0xbd37ac31	-0.04484195
72	0x3db620b5	0.08892957
73	0xbd3258a6	-0.043541573
74	0x3c80922d	0.015694702
75	0xbd6f435f	-0.05841386
76	0xbc0b4634	-0.008500624
77	0xbcee69bf	-0.029103158
78	0x3dc34091	0.095337994
79	0x3cb15556	0.021647137
80	0x3ce11929	0.027477818
81	0xb78d740a	-1.6862545e-05
82	0xbccdeee5	-0.025138328
83	0xbc8750f3	-0.016518092
84	0xbc4f1bd8	-0.012640916
85	0x3d404eed	0.04695027
86	0xbce52c39	-0.027975189
87	0x3d0d684c	0.034523293
88	0xbb92436c	-0.0044636037
89	0xbe0998ca	-0.1343719
90	0xbd0b61e2	-0.034028895
91	0x3cc142c5	0.023591409
92	0xbd1be8ed	-0.038063932
93	0xbc994a8c	-0.018712305
94	0x3d845603	0.06461718
95	0x3d075887	0.03304341
96	0xbd304780	-0.043036938
97	0x3dfd3917	0.12364405
98	0xbdd3c910	-0.10341084
99	0x3e15ba0c	0.14621753
100	0xbd2cb41d	-0.042163957
101	0x3db10621	0.08643747
102	0xbbd7a42e	-0.006580851
103	0x3de8d0dd	0.113679625
104	0xbd21c9be	-0.039499037
105	0xbc81252e	-0.015764799
106	0x3dc832d9	0.097753234
107	0x3d3a7d35	0.045529563
108	0x3d9d8564	0.07691458
109	0x3cf0b987	0.029385341
110	0x3ca93b95	0.020658294
111	0xbe155868	-0.14584506
112	0x3da115b4	0.07865468
113	0xbdd6ce3e	-0.10488556
114	0x3d5e2d1a	0.05424223
115	0x3d89fd1f	0.06737732
116	0x3d8c98c6	0.06865077
117	0xbe1444fc	-0.1447944
118	0xbda2108e	-0.07913314
119	0x3d2124d0	0.039341748
120	0xbc208448	-0.009797163
121	0x3c563e9b	0.01307645
122	0xbd1477ba	-0.036246993
123	0xbd214dc7	-0.039380815
124	0x3ddccfa6	0.10781793
125	0xbc413140	-0.011791527
126	0xbcb68a9e	-0.022282895
127	0xbd7a7af1	-0.061152402
128	0xbd48a13e	-0.048981898
129	0x3ce6dcbf	0.028181432
130	0xbc673d85	-0.0141137885
131	0x3e00f810	0.12594628
132	0xbd7873d8	-0.060657352
133	0x3c02c2bd	0.007981
134	0xbdc6c749	-0.097059794
135	0x3d8b9f43	0.06817486
136	0xbd26d057	-0.040726032
137	0x3da23c10	0.07921612
138	0x3d865102	0.0655842
139	0xbd3b824d	-0.04577856
140	0xbd8820dc	-0.066468924
141	0x3d9cdf92	0.0765983
142	0x3ce56b7c	0.028005354
143	0xbd26b50b	-0.0407
144	0x3dc83c3a	0.09777112
145	0x3d726532	0.05917854
146	0xbd97ec14	-0.07418075
147	0xbd9485fd	-0.07252119
148	0x3d8e226f	0.069401614
149	0x3c611a8f	0.013739242
150	0x3d0118b6	0.031517707
151	0x3d8f6a8c	0.07002744
152	0xbda313a4	-0.079627305
153	0xbdc94380	-0.09827328
154	0x3d3dc9d3	0.046335053
155	0xbdc8503d	-0.09780929
156	0x3d6ee447	0.05832317
157	0xbd5c7157	-0.053819027
158	0xbd85c313	-0.06531348
159	0xbd70522a	-0.058672108
160	0x3d25b117	0.04045209
161	0x3d7930fe	0.06083774
162	0x3c1c03f1	0.009522424
163	0xbc2b5d2f	-0.010459228
164	0xbc53c51b	-0.012925412
165	0xbddeade0	-0.10873008
166	0x3c92587a	0.017864455
167	0xbc338422	-0.010956796
168	0xbce30f2c	-0.027717195
169	0xbdb85fe6	-0.09002666
170	0xbc985711	-0.018596204
171	0xbca634c9	-0.020288842
172	0xbe20638c	-0.15662974
173	0x3df59890	0.119919896
174	0xbcb689d9	-0.022282528
175	0xbb980d05	-0.004640224
176	0xbe0eb767	-0.1393715
177	0xbc50a238	-0.012733988
178	0x3d1c1620	0.038107038
179	0xbc2f773d	-0.010709581
180	0xbd8a9fc6	-0.067687556
181	0xbd0aac18	-0.033855528
182	0x3cc406e9	0.023929076
183	0x3d44096b	0.047860544
184	0xbd8d0e59	-0.06887502
185	0xbd9643c6	-0.073371455
186	0x3e128dc1	0.14311887
187	0xbddbe82f	-0.10737645
188	0xbd5f5e92	-0.05453355
189	0x3dabbf23	0.08386066
190	0x3dde2b63	0.10848119
191	0xbbb67e39	-0.005569246
192	0x3c333a81	0.010939241
193	0xbcc24ae9	-0.02371736
194	0xbc4ad520	-0.0123799145
195	0x3db4b01e	0.08822654
196	0xbe1639e7	-0.14670525
197	0xbd2f44b2	-0.042790122
198	0x3d2c067a	0.041998364
199	0xbd2f3c0d	-0.04278188
200	0x3cbf63da	0.023363043
201	0x3d876bcd	0.06612358
202	0x3e179985	0.14804657
203	0xbdb3e816	-0.08784501
204	0xbdd25ef6	-0.102720186
205	0xbd884bbf	-0.066550724
206	0x3def521c	0.11685583
207	0xbda281e6	-0.079349324
208	0x3c551d69	0.0130075
209	0xbcc75c74	-0.024336077
210	0x3c9e1862	0.019298736
211	0xbb930698	-0.00448687
212	0x3d446e40	0.047956705
213	0x3c80a603	0.01570416
214	0xbd9b0e81	-0.07571126
215	0x3dda8870	0.10670555
216	0x3da8eb7b	0.08248039
217	0xbcd0f60b	-0.025507947
218	0x3dab9e26	0.08379774
219	0xbd17251e	-0.036900632
220	0xbda3d0b2	-0.0799879
221	0xbcf2c1fb	-0.029633513
222	0x3c19b80a	0.009382257
223	0x3ccd4238	0.02505599
224	0x3c2e17fb	0.010625835
225	0xbd181b37	-0.03713533
226	0xbb79e1d2	-0.0038128984
227	0xbe0745ea	-0.13210264
228	0xbd4e6a6e	-0.050394468
229	0x3bd0a85b	0.006367726
230	0x3d1b4123	0.037903916
231	0xbdbf5c37	-0.093437605
232	0x3dad8fda	0.08474703
233	0x3d020a15	0.031747896
234	0x3dc3da87	0.09563165
235	0x3e0c700f	0.13714622
236	0x3e046a72	0.1293123
237	0x3d0b93bd	0.03407644
238	0xbd0b95f9	-0.034078572
239	0xbe0fc564	-0.14040142
240	0x3bb63b6b	0.0055612824
241	0xbca410ae	-0.020027485
242	0x3c4e2aa0	0.012583405
243	0xbd0b1d7a	-0.033963658
244	0xbd3bdfad	-0.04586761
245	0xbdc424bb	-0.09577318
246	0xbd22f453	-0.039783787
247	0x3d70c0b0	0.05877751
248	0x3d9782b5	0.07397977
249	0x3d21b2fe	0.03947734
250	0xbd1d9ed2	-0.03848154
251	0x3cc82716	0.0244327
252	0xbd0b5918	-0.034020513
253	0xbcce1a94	-0.025159158
254	0xbcaac113	-0.020844018
255	0x3d13450d	0.035954524
