textual_inversions/sdxl/flower_1/learned_embeds_2.safetensors (safetensors, 2672 bytes, 1 tensors)

<flower_1> bf16 [1, 1280]
00000000: f23c 05be 32bd 06bd d2bb f2bc b7bd 6abc
00000010: d53a 4e3d 7bbc 1ebd 99bc 133d 1bbd 56bd
00000020: f4bc 07bd d7bd 5ebd 08bd a43c 10bd 08be
00000030: f2bc b63d a23d 5c3a 1cbc b93b f53c 4c3d
00000040: 3abd 9fbd 773d 12bd e5bc 03bd 4fbd b53c
00000050: 0bbd 183d 5bbd b8bc 673d 973d 51bd debc
00000060: 3c3d 343b b9bd 653c 963c fb3d 5d3d d5bc
00000070: edbb dfbc 35bd 093e 6d3d 82bd 8d3b 243d
00000080: b83d ad3c 38bd 7dbd 623c c8bc 793d 873d
00000090: 0c3d aa3c c1bd 203c 87bd 15bd 5fbd 403d
000000a0: f3bc 993c 7ebc 9d3d 97bd d03c 9cbd 8eb9
000000b0: 6dbb a7bd 1a39 903c 843d 87bd 1a3d 213d
000000c0: 573b ba3b 833b d9bd 7d3d 483d a7bc 3c39
000000d0: 06bd 55bd d6bd b7bc 93bd aabb 823d dc3c
000000e0: 64bc 003e fc3c d1bc e33d 533d c33c 7d3c
000000f0: 46ba 4d3c 20bb 673d 97bc 22bd ce3c 813d
00000100: 3f3c 103a 12bd 31bc a73b 0fbd 9f3c f1bd
00000110: d43c acbd 8b3d 893d d53b 743d 39bd 04be
00000120: f1bc 3d3d d3bd 3d3c 30bd 28bb ab3d 84bd
00000130: 66bd 0abe 243c 69bd 1a3b a83c 81bd 1cbd
00000140: 953c 4cbe b23c bdbd aabd 92bc 2ebd 493d
00000150: 473d 9b3d 6cbd 02bd babc 343d 113d ea3c
00000160: 0cbc 28bd 27bd 54bc 11bb b43c fcbd 04bc
00000170: f8bc dabd e3bc 713d 1dbc f43b adbd fd3c
00000180: e5bb 5dbc 30bd 7abd 3fbd f7bc 69bd 32bd
00000190: ac3d 773d a3bd c1bd afbc c63d 92bc 22bc
000001a0: 093b 42bd 83bd 5fb9 afbc 82bd 9bbc f83c
000001b0: 813d d13c a33d b8bc ecbd 853c 933d 1fbd
000001c0: 733c 003d acbc 86bc 0cbe 0dbc 88bc 013c
000001d0: 2fbd 403d 8cbd a0bd 1fbd f6bc 493c 3cbb
000001e0: bb3d cdbc 1fbd 27bc dcbd 8e3b 5c3d 6f3d
000001f0: acbc 893d bb3c 1b3c 093b 2a3c fbbd f6bc
0.029541016 -0.12988281 -0.04345703 -0.032714844 -0.0064086914 -0.029541016 -0.08935547 -0.014282227
0.001625061 0.05029297 -0.015319824 -0.03857422 -0.018676758 0.035888672 -0.037841797 -0.052246094
-0.029785156 -0.032958984 -0.10498047 -0.05419922 -0.033203125 0.020019531 -0.03515625 -0.1328125
-0.029541016 0.08886719 0.07910156 0.0008392334 -0.009521484 0.005645752 0.029907227 0.049804688
-0.045410156 -0.07763672 0.060302734 -0.03564453 -0.027954102 -0.031982422 -0.05053711 0.022094727
-0.033935547 0.037109375 -0.053466797 -0.022460938 0.056396484 0.07373047 -0.05102539 -0.02709961
0.045898438 0.002746582 -0.09033203 0.013977051 0.018310547 0.122558594 0.053955078 -0.026000977
-0.007232666 -0.02722168 -0.044189453 0.13378906 0.057861328 -0.06347656 0.0043029785 0.040039062
0.08984375 0.021118164 -0.044921875 -0.061767578 0.013793945 -0.024414062 0.060791016 0.06591797
0.034179688 0.020751953 -0.09423828 0.009765625 -0.06591797 -0.036376953 -0.05444336 0.046875
-0.029663086 0.018676758 -0.01550293 0.076660156 -0.07373047 0.025390625 -0.076171875 -0.0002708435
-0.003616333 -0.08154297 0.00014686584 0.017578125 0.064453125 -0.06591797 0.037597656 0.03930664
0.0032806396 0.0056762695 0.0039978027 -0.10595703 0.061767578 0.048828125 -0.020385742 0.00017929077
-0.032714844 -0.052001953 -0.10449219 -0.022338867 -0.071777344 -0.0051879883 0.06347656 0.026855469
-0.013916016 0.125 0.030761719 -0.025512695 0.110839844 0.051513672 0.023803711 0.0154418945
-0.00075531006 0.012512207 -0.0024414062 0.056396484 -0.018432617 -0.03955078 0.025146484 0.06298828
0.011657715 0.0005493164 -0.03564453 -0.010803223 0.0050964355 -0.03491211 0.01940918 -0.11767578
0.025878906 -0.083984375 0.067871094 0.06689453 0.006500244 0.059570312 -0.045166016 -0.12890625
-0.029418945 0.046142578 -0.103027344 0.0115356445 -0.04296875 -0.0025634766 0.083496094 -0.064453125
-0.056152344 -0.13476562 0.010009766 -0.056884766 0.0023498535 0.020507812 -0.06298828 -0.038085938
0.018188477 -0.19921875 0.021728516 -0.092285156 -0.08300781 -0.017822266 -0.04248047 0.049072266
0.048583984 0.075683594 -0.057617188 -0.03173828 -0.022705078 0.043945312 0.03540039 0.028564453
-0.008544922 -0.041015625 -0.040771484 -0.012939453 -0.0022125244 0.021972656 -0.123046875 -0.008056641
-0.030273438 -0.10644531 -0.027709961 0.05883789 -0.0095825195 0.007446289 -0.084472656 0.030883789
-0.0069885254 -0.0134887695 -0.04296875 -0.061035156 -0.04663086 -0.030151367 -0.056884766 -0.04345703
0.083984375 0.060302734 -0.079589844 -0.09423828 -0.021362305 0.09667969 -0.017822266 -0.009887695
0.002090454 -0.04736328 -0.063964844 -0.00021266937 -0.021362305 -0.06347656 -0.018920898 0.030273438
0.06298828 0.025512695 0.079589844 -0.022460938 -0.115234375 0.016235352 0.071777344 -0.03881836
0.014831543 0.03125 -0.020996094 -0.016357422 -0.13671875 -0.008605957 -0.016601562 0.007873535
-0.04272461 0.046875 -0.068359375 -0.078125 -0.03881836 -0.030029297 0.012268066 -0.0028686523
0.091308594 -0.025024414 -0.03881836 -0.010192871 -0.107421875 0.004333496 0.053710938 0.05834961
-0.020996094 0.06689453 0.022827148 0.009460449 0.002090454 0.010375977 -0.122558594 -0.030029297
