textual_inversions/sd2/watercolor/learned_embeds.safetensors (safetensors, 4208 bytes, 1 tensors)

<watercolor> f4 [1, 1024]
000000 56 9f 21 3e c2 56 83 bc 09 d7 39 bc 2a ad 8a bc
       0.15783438 -0.01603258 -0.011342772 -0.016928274
000010 91 e9 56 bc 90 01 bb 3b 58 e7 e3 bc 0a 29 21 3d
       -0.01311721 0.0057069734 -0.027820274 0.03934578
000020 95 f6 98 3c 74 1e 2e bd e2 1e 28 3d bc f3 9d bd
       0.018672267 -0.04250951 0.041045077 -0.07712504
000030 61 a7 78 3d 73 2c dc 3d 76 96 bc 3c f5 48 ed 3c
       0.0607065 0.107506655 0.023020964 0.028965453
000040 fd 81 5a bd b6 cb 8b 3d c6 c3 99 bc e4 ea e2 bc
       -0.053346623 0.06825964 -0.01877011 -0.027699895
000050 b9 6b 19 3d 06 4a 84 3d 27 6b 90 bd 82 c7 9c 3c
       0.037456248 0.06459431 -0.07051688 0.019138101
000060 11 50 51 bc f6 66 43 bd 02 4c 1b bd a7 6b 19 bd
       -0.012775437 -0.047705613 -0.037914284 -0.03745618
000070 c1 40 3f 3d c9 fc 01 bd 33 91 9d bc 90 7c 49 bd
       0.046692614 -0.031735215 -0.019234275 -0.049191058
000080 f8 3c ff 3c 7d ec c8 bc 0a 85 82 bd 7d a4 78 bd
       0.031157002 -0.024526829 -0.063730314 -0.060703743
000090 0e d6 51 bd 52 67 8e 3c 25 ad b9 bc 60 f8 ae 3d
       -0.05122953 0.017383251 -0.02266557 0.085434675
0000a0 58 ed e3 bd 05 8c 80 3c 5c c0 53 3d 86 d3 14 bd
       -0.11129254 0.015691767 0.05169712 -0.036334537
0000b0 4a 88 1d bd db 5d 82 bd 1f a6 c6 3b de aa 71 3d
       -0.038460054 -0.06365558 0.0060622836 0.059000842
0000c0 98 03 84 3d 5f c0 31 bd e5 fc cc bd 70 49 56 bd
       0.06445998 -0.04339635 -0.10009173 -0.05231613
0000d0 da 67 a5 bc 8c c4 ce 3d 2c e6 94 3b bb 65 2f be
       -0.020191122 0.10096082 0.00454404 -0.17128651
0000e0 37 ab 66 bd 90 54 87 3d fb d0 43 3c 13 b8 59 3d
       -0.056315627 0.06607926 0.01195168 0.053154062
0000f0 f7 9e 96 3d b2 cc 3a 3d dc 61 a8 bd 39 79 90 3d
       0.07354539 0.04560537 -0.0822179 0.070543714
000100 07 af 0a bd 4e b0 28 3c 25 8f eb bc 5f cb f7 3b
       -0.033858325 0.010295941 -0.02875478 0.0075620855
000110 32 b5 2e 3d 22 5a 3b bd 4f b2 b5 3d fb a0 cb 3b
       0.04265327 -0.045740254 0.088719 0.0062142587
000120 13 0d 0e bd 7d a0 8a 3d 45 04 e4 bc 87 81 24 3d
       -0.034680437 0.06768892 -0.027834067 0.04016259
000130 23 4c 1d bd e5 0e 6f bc 92 49 4a bb 36 56 c5 bd
       -0.038402688 -0.0145909535 -0.0030866605 -0.09635584
000140 08 26 e3 3c 4c 8a 3f 3d 02 ca 7f bc 45 fe e7 bc
       0.027728096 0.04676275 -0.015612127 -0.028319487
000150 c7 d6 98 3d 09 b9 f9 3d 90 51 64 3c 1a be 51 3c
       0.074628405 0.12193496 0.013935462 0.012801671
000160 ac 60 5b 3d 2b 41 6d bd 3c 53 6e bd 2a 7e 74 3d
       0.05355899 -0.057923477 -0.058184847 0.059690632
000170 7b 1d 27 3c 1a 22 d7 bd 32 e6 1c 3d 9b 1f c4 3d
       0.0101999 -0.10504551 0.03830547 0.09576341
000180 8c f2 10 bd cf a2 5f bc dc 99 e4 bc 5e 0b 05 3e
       -0.03538756 -0.013649656 -0.027905397 0.12992617
000190 46 5e 7c bd 44 07 e6 3c d8 fd bf bd 12 eb 36 bc
       -0.061613344 0.028079636 -0.09374589 -0.011164444
0001a0 66 6f 7d 3c 91 6f dd 3c a1 da 0a 3e 27 50 dd bd
       0.015468454 0.027030738 0.13559963 -0.108063035
0001b0 43 33 bc 3c 74 1e b4 bd 04 68 04 3d 03 78 91 bd
       0.022973662 -0.08794871 0.03232576 -0.071029685
0001c0 26 56 d5 3c a8 89 97 bb 38 ed 78 bd 6f c8 20 3d
       0.026042055 -0.004624564 -0.060773104 0.03925365
0001d0 1c 19 6e 3c 54 85 f2 3c 60 81 44 3d 50 9b d0 bb
       0.014532354 0.029604591 0.047974944 -0.006366171
0001e0 d0 5b 81 bd 4c 76 0c 3d 95 58 17 3d 1b 3d 4e bd
       -0.0631634 0.034292504 0.036949713 -0.050351243
0001f0 fd 27 4c bd 42 ce 4b bd ec dc 8f 3b 88 f6 c6 3c
       -0.049842823 -0.04975725 0.0043903496 0.024287477
000200 ec ab ae 3b 28 cf 4a bd 81 10 0a 39 f3 2e e2 bc
       0.0053305533 -0.049513966 0.00013166854 -0.027610278
000210 c9 db 1d bd 00 df 62 bc 64 8e 52 bd e6 29 9a bd
       -0.03853968 -0.013847113 -0.051405326 -0.07527523
000220 99 aa 05 3d 55 22 fc 3c fc db 96 ba 74 17 e0 3c
       0.032633398 0.03077809 -0.0011509652 0.027354933
000230 98 c4 45 bd 1f 4d cb bc 61 49 7f 3d 7d 54 08 3d
       -0.04828319 -0.024817048 0.06232584 0.0332837
000240 8c f5 9b bd fb 65 4e bd 9c 69 a5 3a 49 f7 f4 3b
       -0.07615194 -0.050390225 0.0012619975 0.0074757678
000250 3f 1d 00 3d db 77 61 3c db 44 4d 3d 19 80 6d 3c
       0.03127789 0.013761486 0.050114494 0.014495873
000260 f1 d0 51 bd a8 92 2b bd 81 ed 47 3c 31 33 12 bd
       -0.051224653 -0.04188791 0.012202621 -0.03569335
000270 c1 e1 a0 3c 88 ee ea bc b3 11 f1 bc 70 4b 58 bd
       0.019638898 -0.028678194 -0.029427385 -0.052806318
000280 40 d7 64 bd 89 00 2c bd b8 f3 df 3d 06 41 31 bd
       -0.05586934 -0.041992698 0.109351575 -0.0432749
000290 fb e0 c3 3c a4 4c e3 bc 6f 85 58 3c 2d c2 7d bc
       0.02391099 -0.027746506 0.013215407 -0.01548819
0002a0 79 9d 5e bd 97 20 e5 3c 85 65 b4 bd 60 e7 27 bc
       -0.054349396 0.027969642 -0.08808426 -0.010248035
0002b0 67 da 86 3b e0 d2 30 3d 56 02 b7 bd 6c 22 25 3d
       0.004115391 0.043169856 -0.089359924 0.04031603
0002c0 a5 a2 1d 3c 22 6a 59 3c e9 57 5f 3c 29 5d 88 3b
       0.009621297 0.013269933 0.013631799 0.004161496
0002d0 5c d8 98 3c 36 46 87 3d 3b 07 9f ba 09 3e 0e 3c
       0.018657856 0.066051885 -0.0012132892 0.0086817825
0002e0 a6 88 84 3c db fd 91 3c 78 d6 9c bc 4a bf 85 3c
       0.01617844 0.017821243 -0.019145235 0.016326565
0002f0 d1 e2 14 b8 03 a1 6e 3d 82 00 25 bd 9f 75 9f bd
       -3.549719e-05 0.05825902 -0.040283687 -0.07786106
000300 ab a5 d6 3c 3e b9 58 3c 86 89 71 3d 97 de 84 bd
       0.026202044 0.013227759 0.058969043 -0.06487768
000310 67 d2 e5 3b a3 07 89 3c fc cf 6a 3d cb 35 cc bc
       0.0070136073 0.016727274 0.057327256 -0.024927994
000320 36 d0 d2 bb 2e 7d da 3c 37 39 60 3c 86 13 71 bc
       -0.006433512 0.026671018 0.013685516 -0.014714127
000330 e4 94 55 bc 6f 8f 75 3b d7 e5 66 3c 61 48 3b 3c
       -0.013035987 0.0037469526 0.014092884 0.011430831
000340 e9 9e cd bc 93 72 30 bd 02 b2 49 3c a5 fa 64 3d
       -0.025100188 -0.043078016 0.012310507 0.055903096
000350 64 95 11 bd 15 0a 89 3c aa 31 3b bc 23 64 18 bd
       -0.03554286 0.01672844 -0.011425415 -0.037204873
000360 1c 58 02 3d f2 25 41 bd 39 89 12 3d 9f 4b 59 3c
       0.03182231 -0.047155328 0.035775397 0.013262658
000370 4e d4 e9 3c 9c e4 30 bd 7e 94 70 bd 09 1d 04 bd
       0.028543618 -0.04318677 -0.058735363 -0.032254253
000380 3f 1e fe bb 77 e0 4b 39 2f 30 a0 bd 00 78 33 bd
       -0.0077550705 0.00019443208 -0.0782169 -0.043815613
000390 06 8d 5b 3d 30 b2 c0 bd 13 7f d2 bc 0b 99 a2 3d
       0.053601287 -0.094089866 -0.02569536 0.07939347
0003a0 de 51 f8 bc 86 79 6f 3d 20 c6 55 bd 1c 51 a8 3c
       -0.030312475 0.058465503 -0.0521909 0.020546488
0003b0 fa 57 8f bd e3 a9 2e bd 24 be 20 3d fb 6e 92 3d
       -0.06999202 -0.042642485 0.039243832 0.07150074
0003c0 87 00 b3 3c 61 53 93 bd b7 35 9a bc 54 ca 91 bd
       0.021850837 -0.07193638 -0.018824441 -0.07118669
0003d0 b3 44 46 bd 3b e1 75 bd d6 1f e8 bb e3 dc 81 3c
       -0.04840536 -0.06002925 -0.0070838733 0.015852397
0003e0 ff a0 86 3c 36 47 cc bc 9f f7 c0 3b 73 87 6c 3d
       0.01643419 -0.0249363 0.0058888937 0.057746362
0003f0 68 a2 06 bc 78 aa 4a bd ad 21 4b bd 84 8c fe bc
       -0.008217432 -0.049478978 -0.049592663 -0.031072862
