textual_inversions/sd2/pet_cat1/learned_embeds.safetensors (safetensors, 4208 bytes, 1 tensors)

<pet_cat1> f4 [1, 1024]
0.017318144 0.024311887 0.0071946452 0.016308943 0.0255318 -0.054897796 0.025822198 -0.0132368235
0.050844792 -0.002833409 -0.0021509973 -0.004411595 -0.02701021 -0.0068179476 0.018737476 -0.002389341
0.0001208506 -0.06473633 -0.01630683 0.0213692 0.04949524 0.0171163 -0.0046338965 0.018603908
0.016143443 0.03376671 0.0033082552 0.035929427 -0.033782706 -0.0037136825 0.004515053 -0.011969925
0.005014787 -0.033187382 -0.012489214 -0.010163269 -0.027147232 -0.032812387 0.0016963829 -0.008114172
-0.013463522 0.016054984 0.014885085 0.01788805 0.021225436 -0.05138197 -0.014591291 -0.05969771
0.008611936 0.024044953 -0.0386046 0.02357455 -0.055149548 0.032044195 -0.06828721 -0.013276923
0.01836857 -0.0022870053 0.001745518 -0.043208055 -0.0137126995 -0.056377046 -0.045501813 0.003801793
-0.00020272289 -0.036714863 0.01222615 0.023869257 0.0056834337 -0.03859078 0.015491474 0.04796845
-0.009809631 0.03829849 0.004467973 0.030304627 0.012196161 -0.026363157 0.02454464 -0.03137073
0.068563946 -0.034012843 0.016285544 -0.009917308 0.0011524505 0.031924885 0.017600909 -0.0033055434
0.035055887 -0.019995337 0.013885415 0.004371082 0.007551676 -0.06948285 0.0113680335 -0.037185226
-0.030484475 0.033693064 -0.010005203 -0.04651035 -0.008614915 0.03002961 0.009164342 -0.007098974
0.011295467 -0.024689352 0.060744144 0.001866546 0.003538231 0.02058984 -0.024401749 -0.017888382
0.032755993 0.00895642 0.051377993 0.036306974 -0.0005600661 0.0193995 -0.018148117 0.022386285
-0.0029867403 0.033494473 -0.041271187 0.060077664 0.020122908 0.0066881846 0.007037989 0.024294516
-0.0067449138 0.011383806 0.016748942 -0.0022270116 -0.0145550575 0.0373782 -0.037093513 0.026357183
0.0171364 -0.016866852 -0.018596979 -0.008936464 0.031459183 -0.02780472 -0.0474648 -0.038747318
-0.030007968 0.026155401 0.004631061 0.026239717 -0.0055109626 -0.0066585313 -0.066939265 0.031035244
0.027190229 0.03130792 -0.011739811 0.040985122 -0.04351915 -0.038550142 -0.045496196 -0.036518283
-0.011056743 -0.017747656 0.0014074153 0.028796043 0.029644901 0.01356375 -0.06902516 0.008698754
-0.03283993 -0.0031691338 -0.041536406 -0.025800297 0.024571003 0.0010945199 0.022464659 -0.01403381
-0.06749541 0.009538696 -0.066204004 0.024326848 0.0029029977 -0.009776275 -0.003224517 -0.012443731
0.025024356 0.012418796 -0.03328391 0.00873923 0.0024587354 0.006284277 -0.009857391 0.019353494
-0.043903865 0.017270848 -0.055194553 -0.04134874 0.0209515 0.008762239 -0.0323986 0.034070376
-0.009228299 -0.027916312 0.014528265 0.014392122 -0.04617669 0.05313371 -0.06681997 0.0041570254
-0.0008585331 0.018561037 -0.011364308 0.04252084 -0.017265188 0.018188434 -0.002827991 0.019445991
-0.011078662 0.055507198 -0.02131705 0.04406798 0.006913235 -0.029230023 0.016330704 -0.029792774
0.0026605013 -0.029612537 -0.02657532 0.0011518974 -0.0053879777 -0.037807394 0.01907996 0.02829368
0.0047061094 -0.0020306818 0.0096193645 0.0016104123 -0.06674675 -0.06111125 -0.023548353 0.01623358
-0.037691597 -0.040258233 0.03663224 -0.02444477 0.021466121 0.04365854 0.039141968 -0.042330723
-0.014349742 -0.0036200637 0.039603796 0.010420299 0.0013674715 0.068333976 -0.025098292 -0.020093312
00000000: c8de 8d3c b929 c73c 0fc1 eb3b 559a 853c
00000010: 1128 d13c 83dc 60bd 1389 d33c 43df 58bc
00000020: a142 503d b7b0 39bb bff7 0cbb 248f 90bb
00000030: 8444 ddbc 1769 dfbb 567f 993c 7d96 1cbb
00000040: 2c71 fd38 7b94 84bd e795 85bc 760e af3c
00000050: 85bb 4a3d 7c37 8c3c f1d7 97bb 3967 983c
00000060: 413f 843c f64e 0a3d 50cf 583b bc2a 133d
00000070: bc5f 0abd 4161 73bb 02f3 933b 811d 44bc
00000080: 1553 a43b 7eef 07bd 8f9f 4cbc d783 26bc
00000090: df63 debc 4866 06bd 2a59 de3a 4ef1 04bc
000000a0: 1b96 5cbc be85 833c 92e0 733c f689 923c
000000b0: f7e0 ad3c e775 52bd 4f10 6fbc 9685 74bd
000000c0: 1419 0d3c ecf9 c43c db1f 1ebd 6a1f c13c
000000d0: 7ee4 61bd c640 033d 2ada 8bbd 7487 59bc
000000e0: af79 963c 95e1 15bb ddc9 e43a eefa 30bd
000000f0: 3bab 60bc 9eeb 66bd 1c60 3abd 8127 793b
00000100: 0392 54b9 5362 16bd 3150 483c 7689 c33c
00000110: 193c ba3b 5e11 1ebd f4cf 7d3c 917a 443d
00000120: 93b8 20bc e1de 1c3d 1368 923b 6941 f83c
00000130: 68d2 473c 8cf7 d7bc d711 c93c 987e 00bd
00000140: 416b 8c3d 0d51 0bbd 4369 853c 347c 22bc
00000150: d20d 973a abc3 023d c82f 903c d1a1 58bb
00000160: c396 0f3d 43cd a3bc a77f 633c 4b3b 8f3b
00000170: 0d74 f73b 064d 8ebd fd40 3a3c 894f 18bd
00000180: 94ba f9bc bd01 0a3d ddec 23bc a381 3ebd
00000190: 9325 0dbc a800 f63c 0926 163c 839e e8bb
000001a0: 9f10 393c 5341 cabc dace 783d e4a6 f43a
000001b0: aae1 673b 06ac a83c 2de6 c7bc a88a 92bc
000001c0: 262b 063d f3bd 123c bb71 523d 9fb6 143d
000001d0: 66d1 12ba b3eb 9e3c 5cab 94bc 7163 b73c
000001e0: 30bd 43bb 8031 093d fa0b 29bd ff13 763d
000001f0: ccd8 a43c 8f28 db3b ee9e e63b 4b05 c73c
00000200: 7004 ddbb 2583 3a3c 1435 893c 0ef3 11bb
00000210: 5678 6ebc e219 193d 5eef 17bd 05eb d73c
00000220: a361 8c3c 5a2c 8abc b158 98bc 3f6a 12bc
00000230: 58db 003d b9c6 e3bc 736a 42bd 82b5 1ebd
00000240: 45d3 f5bc da43 d63c 28c0 973b adf4 d63c
00000250: 4e95 b4bb cf2f dabb 7417 89bd a03d fe3c
00000260: 0bbe de3c bc3c 003d 5658 40bc 04e0 273d
00000270: 2341 32bd c1e6 1dbd 385a 3abd 3294 15bd
00000280: 5727 35bc 8863 91bc 0579 b83a aee5 eb3c
00000290: ddd9 f23c 7e3a 5e3c 105d 8dbd 3885 0e3c
000002a0: 2a83 06bd 3eb1 4fbb 1422 2abd 255b d3bc
000002b0: 2149 c93c fe75 8f3a ce07 b83c 11ee 65bc
000002c0: 093b 8abd 3148 1c3c f795 87bd 1949 c73c
000002d0: 3840 3e3b ab2c 20bc 6b52 53bb cae0 4bbc
000002e0: e1ff cc3c 3578 4b3c b654 08bd fd2e 0f3c
000002f0: bc22 213b 56ec cd3b e580 21bc 388b 9e3c
00000300: 8ad4 33bd 987b 8d3c af13 62bd 4c5d 29bd
00000310: 7ba2 ab3c 7e8f 0f3c 65b4 04bd 618d 0b3d
00000320: 4b32 17bc c0b0 e4bc f607 6e3c efcc 6b3c
00000330: c523 3dbd bca2 593d e9d8 88bd a837 883b
00000340: 2e0f 61ba 510d 983c 5d31 3abc 552a 2e3d
00000350: b96f 8dbc e9ff 943c d155 39bb 334d 9f3c
00000360: 4783 35bc 845b 633d 18a1 aebc a080 343d
00000370: 6b88 e23b cd73 efbc f8c7 853c fa0f f4bc
00000380: ce5b 2e3b fe95 f2bc 7cb4 d9bc 43fb 963a
00000390: a28d b0bb eddb 1abd 944d 9c3c 26c8 e73c
000003a0: b535 9a3b 3015 05bb 8a9a 1d3c 7814 d33a
000003b0: 85b2 88bd ca4f 7abd 7ae8 c0bc 49fc 843c
000003c0: 8162 1abd d1e5 24bd b00b 163d 6640 c8bc
000003d0: b8d9 af3c 4cd3 323d 5453 203d fb62 2dbd
000003e0: 2e1b 6bbc 973e 6dbb 9737 223d e7b9 2a3c
000003f0: bb3c b33a aff2 8b3d ef9a cdbc bb9a a4bc
