textual_inversions/sd2/flower_1/learned_embeds.safetensors (safetensors, 4208 bytes, 1 tensors)

<flower_1> f4 [1, 1024]
00000000: e221 baba 63e4 1e3d 879e cd3c 9ea0 343d
00000010: d54f e3bc c8b2 86bd e3a1 9fbc 5497 223b
00000020: ee6c 10bc ae54 02bc 708c 12bb bcdd 64bc
00000030: ce60 e23c f739 cd3c 9745 13bd e6a1 c13c
00000040: 134e bc3c 1f05 ab3d a884 70ba 4876 84bb
00000050: 731a 8f3c 4d3f a83c d955 a43c 8a5d 4ebc
00000060: e77b 903c 8163 51bc b247 3dbd 5cf4 f03c
00000070: dbf8 213d 3080 b2bc bc7a 7abc c372 65bd
00000080: 650e 0a3d 018a 563d eae2 c33c ea3d 5e3c
00000090: 2e0e 27bc 7df8 303b 102a d53c 744d 773c
000000a0: cec3 153d 5a4e 5a3c a7fa 373d 3a20 0dbc
000000b0: 7de8 bdba c32b 66bd 3d42 cebc 2a28 443c
000000c0: 5fec 4c3c 139a 453c 35a7 3e3c c8ae 59bc
000000d0: 057c a33c febe 003d 3ff5 02bc 8e7e f63b
000000e0: 1536 e03c e6cc 6c3c ec87 c6bc a41a ba3c
000000f0: 6c4c 02bc abb0 bebc 9522 a7bb 94c0 0cbd
00000100: 8e16 533d 6f1a 2bbd c7d4 86bb a23e c8b9
00000110: 590b 523d 6b6b c0bb 617a 5b3d 3466 a73c
00000120: 5503 b13c 9efc 9fbc 2dbd 4b3c 5716 c139
00000130: d90f 0e3d c4af 84bb 744d 34bd 2699 01bd
00000140: c317 273b 1a04 053c 29e4 c6bc 0a27 62bc
00000150: 6a37 a5bc d7a4 c23b 991c 4e3c 565b ca3c
00000160: fce8 8fbb 2ef7 cdbc 58bb ea3c 2046 d43b
00000170: afb5 053d 31f7 7d3c 62bb 8e3c 66c0 e3bc
00000180: ac28 29bc 9395 153c a06f 5f3a d977 6cbd
00000190: 9a7e 053c 1afd a03c 1001 b43c 95cc 963b
000001a0: 20a5 a53a a94c f23c 6baf 9b3a c8fa fabb
000001b0: 64f8 afbc 21c0 5a3c 0c60 c03d b59a 193d
000001c0: c29c 353d 649a 593c e6aa 8f3a 78c5 323d
000001d0: 88fd 8fbb 8f0e cfbc 140d 833d 2c76 0d3d
000001e0: 2a1c c63b 42d9 30bd 1f01 d63b 5d3b c3bc
000001f0: c55a e6bb 5b2f 88bd e936 09bd 714a d2bc
00000200: ee89 debb c1ce a9bc 49bc d73c 675c 2ebc
00000210: 9b5d 7ebc 12a2 38bd e2fe abbb 17e4 6cbc
00000220: a566 8dbc 4aea 8fbc dc67 babc 1915 013c
00000230: 5f47 1ebb 0588 8abc b96a a43b 7a8f 183d
00000240: 2814 2f3c 6deb 03bd 9559 aabd 3b70 d8ba
00000250: 1cd8 c53c eab3 d93b 1d34 1e3d 05d1 1ebd
00000260: d915 a1bc 0298 81bc 79ca 253b f1ec c73b
00000270: 0bf9 b6bb b106 94bb 20fc ecbc 493f a9bc
00000280: ca40 dabc 71c1 1cbb d380 443c 63d4 fbbc
00000290: 4f65 b7bb e390 b33c 3e52 34bd 3938 1ebc
000002a0: b738 4c3d f30d 553c 7ff2 cd3c 032c f83c
000002b0: f8c0 b23c cbf1 11bc dbcc 98bd 01e3 01bd
000002c0: 3085 133d a148 2bbd be98 7e3c cfbe 16bc
000002d0: a0f2 87bc eb61 823d d49d 003d 81ba 9f3d
000002e0: 3714 b73a 7b04 913c 0186 67bd fc17 5b3d
000002f0: 6217 853c be7b 223d 23af 053d c23a 2fbd
00000300: 62a8 16bd 615c f33a 7934 8abc 0adf c7bc
00000310: 89e7 c7bc c302 febb d3b7 3f3c 5992 ccbc
00000320: 0fa5 74bd e083 963c 7e00 1bbd 01b2 1a3d
00000330: adad 273d 9471 b8b9 5b19 253c 5dea 1c3c
00000340: 57f7 603c 1a42 023c c551 2bbd 3f84 8d3a
00000350: 1857 0e3c 1d13 57ba 6806 20bd 7a0e f5bc
00000360: c9c1 ccb9 9aa4 8d3c 8b4d c03b 1250 b239
00000370: d916 6d3d 7a01 0cbd e69a 78bc bf6f 6c3c
00000380: 107a dc3c 1809 9ebb 631c c1bb e39d e1bc
00000390: 92d1 103d 0450 b0bc aa6e 1cbc ad91 a6bb
000003a0: 8ab6 f73c 8b80 cf3c cb2a d7bc 342a 50bd
000003b0: 0278 74bd 46b4 19bd b630 1f3d 805e 6d3c
000003c0: 65b8 ed3c 36ae 6cbc 4119 64bc 37c5 ef3b
000003d0: 6165 563d 4828 e63b 9f4d 0ebb fa77 f23a
000003e0: 8f4d 033c 397b 01bd 6e88 2dbd b6a3 a93c
000003f0: 4cb8 203d c971 47bc 2f45 0dbc eaca 88bc
-0.0014200772 0.038792025 0.025100006 0.04409849 -0.027748028 -0.065770686 -0.019486373 0.0024809437
-0.008815033 -0.0079547595 -0.002236154 -0.013968881 0.02763405 0.025052054 -0.035955038 0.02363677
0.022986447 0.08350586 -0.0009175041 -0.0040424205 0.017468667 0.020537997 0.020060467 -0.012595544
0.017637206 -0.012780071 -0.046210952 0.029413395 0.039543968 -0.02178964 -0.015288051 -0.05601765
0.033705134 0.052377705 0.023911912 0.013564566 -0.010196252 0.002700358 0.026021034 0.01509415
0.036563687 0.0133243445 0.044916775 -0.00861364 -0.0014488843 -0.05619408 -0.02517807 0.0119724665
0.012507527 0.01206066 0.011636545 -0.0132863 0.019956598 0.031432144 -0.007993042 0.0075224107
0.027369538 0.0144531485 -0.024234734 0.022717781 -0.007952791 -0.023277601 -0.005100558 -0.034363344
0.05153518 -0.041773256 -0.0041147205 -0.00038193638 0.051280353 -0.00587218 0.053583506 0.020434476
0.021608034 -0.019529637 0.01243524 0.00036828473 0.034683082 -0.004049273 -0.044019178 -0.031640194
0.002549634 0.008118654 -0.024278717 -0.013803253 -0.020168025 0.0059400606 0.01258006 0.024701755
-0.0043917876 -0.025142279 0.028653786 0.006478086 0.03264397 0.01550083 0.017423335 -0.027801704
-0.010324638 0.0091299 0.00085234083 -0.057731483 0.00814786 0.019651938 0.021973163 0.004602025
0.0012637712 0.02957757 0.001187784 -0.00765929 -0.021480747 0.013351471 0.093933195 0.037501056
0.04433895 0.0132814385 0.0010960966 0.043645352 -0.004394237 -0.025275497 0.06398979 0.034536526
0.006045838 -0.043175943 0.0065308954 -0.023832018 -0.0070298635 -0.06649657 -0.033499632 -0.025670262
-0.006791345 -0.02072847 0.026334899 -0.010642148 -0.015525247 -0.045076437 -0.0052488903 -0.014458678
-0.017260859 -0.017567772 -0.022754602 0.007878565 -0.0024151427 -0.016910562 0.005017605 0.037246205
0.010685958 -0.03220694 -0.08317868 -0.001651294 0.0241509 0.006643762 0.038623918 -0.038773555
-0.019663738 -0.015819553 0.0025297685 0.0061012437 -0.0055838875 -0.0045173992 -0.028928816 -0.02066006
-0.026642222 -0.002391901 0.011993605 -0.030740922 -0.0055967937 0.021919673 -0.044023745 -0.009656959
0.049858775 0.013003814 0.025140045 0.030294424 0.02182053 -0.008907746 -0.07460948 -0.03171063
0.03601569 -0.04181731 0.015539346 -0.009200766 -0.016595185 0.063663326 0.031400517 0.07799245
0.0013967816 0.017702332 -0.05652428 0.05348967 0.016246501 0.03966879 0.032637727 -0.042780645
-0.036781676 0.001856696 -0.016870724 -0.024398346 -0.024402397 -0.007751794 0.011701542 -0.024972128
-0.059727725 0.01837343 -0.037842266 0.037767414 0.040937115 -0.00035179837 0.010076846 0.009577361
0.013730845 0.00795033 -0.04182603 0.0010796859 0.008687757 -0.0008204447 -0.03906861 -0.02991413
-0.00039054293 0.017290402 0.005868619 0.00034010463 0.057883117 -0.034181096 -0.015173649 0.014430939
0.026913673 -0.0048228614 -0.0058932765 -0.027541107 0.03535611 -0.02152253 -0.009547869 -0.005083284
0.030238409 0.025329849 -0.026265522 -0.050821498 -0.05968476 -0.037525438 0.038864814 0.014487863
0.02901859 -0.014445832 -0.013922037 0.007317211 0.052342776 0.007023845 -0.0021713746 0.001849889
0.008014097 -0.031611655 -0.042366438 0.020707946 0.03923826 -0.012173125 -0.008622452 -0.01669832
