textual_inversions/sd2/dog/learned_embeds.safetensors (safetensors, 4208 bytes, 1 tensors)

<dog> f4 [1, 1024]
000000 4d 46 3d 3d c8 b6 8c bb 04 a5 d5 bc 0b a1 bb 3d
       0.046209622 -0.00429425 -0.026079662 0.09161576
000010 94 6f 91 3c bc a2 bc 3c 04 80 4b 3c a2 81 38 3d
       0.0177534 0.023026817 0.012420658 0.045045502
000020 18 dd 7e bd 27 85 12 3b 92 51 b3 bc c1 cc 69 bd
       -0.06222257 0.0022357197 -0.021889482 -0.057080034
000030 b2 a3 0e bd 05 03 f1 ba b4 95 40 bc 15 c3 6c 3d
       -0.03482408 -0.0018387741 -0.011754442 0.057803232
000040 e4 b9 8c bc 30 d1 b6 bc f4 29 07 bd 6a 82 4a 3c
       -0.017178483 -0.022316545 -0.032998994 0.012360195
000050 7a fc 2d 3d 7c 42 3b 3d 55 20 b7 bc 14 1d d1 bc
       0.04247711 0.0457177 -0.022354284 -0.02552656
000060 d0 13 0f 3d 3d 9d da 3c bd 63 b8 3c fe d6 98 bc
       0.034931004 0.026686305 0.022508496 -0.018657204
000070 e6 c0 74 bc 20 b7 16 bc 2d a6 06 bd e0 6d 0f bd
       -0.014938569 -0.009198934 -0.03287332 -0.035016894
000080 9b 93 65 3d 5d 6e d1 bc 95 eb 3f 3d dd 9a ef ba
       0.05604897 -0.02556532 0.046855528 -0.0018280406
000090 a5 64 81 3c 3f b8 58 bd 4a 3b b0 bc 7a e1 69 3d
       0.015795061 -0.052910086 -0.021512646 0.057099797
0000a0 93 4d 21 3c 2f 06 c5 3c 57 1b 51 3d 53 18 d0 ba
       0.009845155 0.0240508 0.051051464 -0.001587639
0000b0 d2 45 9c bd 18 2c 0b bd 04 d0 ed 3c 0b a6 ec bc
       -0.07630505 -0.033977598 0.029029854 -0.02888777
0000c0 7b c1 f3 3a aa 0a 14 bd 10 98 0f bd c7 4e 57 bc
       0.001859709 -0.036142983 -0.035057127 -0.013141341
0000d0 d3 d1 c7 bc 2f 2e 18 3b 36 d3 be bc 8e d0 ed 3b
       -0.024392044 0.0023220887 -0.023294073 0.0072575277
0000e0 23 f3 f6 bc 0f 8f 97 3c 51 a3 7e 3d ac 7c 25 bd
       -0.030145233 0.018500833 0.06216747 -0.0404021
0000f0 a9 f6 16 3d 52 63 5b bd ae 0e b5 3b 03 3d ad bb
       0.036856327 -0.053561516 0.0055254316 -0.005286814
000100 1f 36 c0 3c ff b9 aa bc 39 b7 73 3c 87 2f 9b bc
       0.023463307 -0.020840643 0.014875227 -0.018943561
000110 40 66 1f 3c 04 82 88 3b d6 27 1c 3d db 79 24 3d
       0.009728968 0.0041658897 0.038123928 0.040155273
000120 5b 13 d4 3c d2 0b 97 bc 31 d0 e6 3c a3 83 3b 3d
       0.025888136 -0.018438254 0.028175445 0.045779835
000130 c3 5d 59 bc 85 4f 91 3d 82 3c ad 3b bb 65 90 bd
       -0.013266983 0.07095245 0.005286754 -0.070506535
000140 6a 99 22 3d cb bf a4 3c 83 68 5f 3c 6b aa 7f 3c
       0.03969709 0.020110985 0.013635757 0.015604596
000150 ff c0 74 bd 7a dd 94 bc dc 24 8c 3c ff bd 06 3d
       -0.059754368 -0.018172015 0.01710742 0.03289604
000160 74 52 b3 bb 4f 26 e8 bc 66 75 68 ba ec 23 cf bc
       -0.0054724757 -0.02833858 -0.00088675914 -0.025285684
000170 2a c4 b4 bc f0 fe 19 bd 84 fd f6 bc 27 d0 8d 3d
       -0.022066195 -0.037596643 -0.030150183 0.069244675
000180 12 44 0b 3d 12 91 a5 3d a4 f1 09 3b e3 87 24 3c
       0.034000464 0.080843106 0.002104857 0.010042164
000190 db b1 81 3d 4a 6f c5 bb 59 1e 87 3d e7 b0 66 3c
       0.06332751 -0.0060252296 0.06597585 0.014080263
0001a0 1b ef 19 3c fa aa 15 bc a3 38 8e bb 40 b4 61 3b
       0.009395386 -0.009135002 -0.0043402477 0.0034439713
0001b0 df 5c d2 3c 99 1f de 3b 9d 54 20 bc 94 9c 8a 3c
       0.02567905 0.006778669 -0.009785798 0.016920365
0001c0 8e 57 b2 bc ff 54 7b 3c 17 b9 c1 3c 62 51 a8 3b
       -0.021770265 0.015340089 0.023647828 0.0051366547
0001d0 6b 90 28 3c 34 30 11 bd b4 d1 a8 bc ec 23 2a 3d
       0.010288338 -0.03544636 -0.020607807 0.041538164
0001e0 b3 97 41 3d 2d 69 4b 3c df b5 0a 3c 3d 3e 07 3d
       0.047263812 0.012415213 0.008466213 0.03301834
0001f0 94 f3 30 3d 16 f4 0d bd e4 72 34 bd 41 f7 99 3c
       0.043201044 -0.034656607 -0.04405488 0.018794658
000200 cf 5a 74 bd 00 38 91 bd af 36 c1 bc af b9 46 bb
       -0.059656914 -0.07090759 -0.023585645 -0.0030323078
000210 88 ee b0 bc eb 7e a5 3c 65 ef 0e bd b6 18 35 3d
       -0.021598116 0.02020212 -0.034896273 0.04421302
000220 a8 58 1f 3d fa fc c9 3c 1a 2d 9f bc b3 10 2d 3a
       0.03890291 0.024656761 -0.019430686 0.00066019146
000230 7b 17 82 3d 97 2e 17 bd a1 77 4e bd bb c4 f1 3c
       0.06352135 -0.036909666 -0.050407056 0.029512754
000240 02 64 a8 bc 00 58 c0 3b e9 58 0b 3d ba 71 70 3d
       -0.0205555 0.0058698654 0.03402034 0.058702208
000250 1c 42 a5 bc 7b 35 08 3d e8 b0 61 bc de 0a 8d bc
       -0.020173125 0.033254128 -0.013775088 -0.017217096
000260 da 7b 87 bb d4 8a 11 bd b0 6a 44 bc 8a 1e ea 3c
       -0.0041346373 -0.035532787 -0.011988327 0.028579015
000270 34 b1 99 bc 3b 7c b1 3c 48 71 9e bd 5e 5b 53 39
       -0.018761255 0.021665683 -0.077364504 0.00020156565
000280 bb 66 96 bd 70 2b ec 3c 99 35 76 bc 79 17 1e 3d
       -0.07343813 0.028829306 -0.015027427 0.038596604
000290 f2 9a 82 3d 47 ef 81 3d dc 90 0e bd a2 8a 0f bc
       0.0637721 0.06344467 -0.034806117 -0.00876108
0002a0 5f 90 3d bb d2 90 69 39 bf 3d 3a bd a8 ca 08 bd
       -0.0028925163 0.00022274561 -0.045469042 -0.033396393
0002b0 2a 6a 85 3d 46 14 0c bd f2 34 85 3c 9f 1e 8d bc
       0.0651439 -0.03419902 0.016260598 -0.017226515
0002c0 38 a9 d0 bc 08 6f 95 bd ee 40 60 bd fb f7 a7 3a
       -0.025471315 -0.07296568 -0.05474942 0.0012814993
0002d0 b8 98 13 3d 56 33 c9 3c aa 97 bc 3b 50 84 d6 3c
       0.036034316 0.024560612 0.0057553845 0.026186138
0002e0 ea 4f 04 3d de 20 5b 3d 50 11 af ba 27 f0 83 3c
       0.032302774 0.05349814 -0.00133566 0.016105724
0002f0 1c 47 16 bd 3d f9 f5 b9 53 1e a8 bc ef 75 87 3c
       -0.03668891 -0.00046915738 -0.020522272 0.016535727
000300 e3 5e fd 3c 15 48 0e bd 7a 2c 29 3d c0 a0 8b 3c
       0.030929035 -0.03473671 0.04130218 0.017044425
000310 85 f7 bc 3d 07 2f bd 39 69 67 47 bc fa 1e 39 bd
       0.09226898 0.00036083927 -0.012170651 -0.045195557
000320 c1 0a 00 bb 5d 66 32 bd 34 8f a3 bb 81 b9 02 3d
       -0.001953766 -0.043554652 -0.0049914364 0.03191519
000330 2f ca 1b bd 0a 04 9e 3c 26 8b ab bb ed 76 5c bc
       -0.038034614 0.019289035 -0.0052350936 -0.0134560885
000340 26 d3 9a bc 08 dd 24 3d 7e e6 dd 3c ab c5 e3 3c
       -0.018899512 0.040249854 0.027087446 0.027804216
000350 51 c8 ea bc 42 23 00 bd 0a b9 37 3d 69 38 b5 bc
       -0.028659971 -0.031283624 0.0448542 -0.022121625
000360 0f 61 ed bc 60 47 4e bc bc 7d 2d bc 8d 10 2c 3d
       -0.028976945 -0.012590259 -0.010589059 0.04200797
000370 07 2f 51 3c a1 dd 62 3b 82 7a 88 3d 7b f6 29 bd
       0.01276756 0.0034616964 0.066639915 -0.041494828
000380 48 ed d8 bc 8b cb 80 bd 42 ed af 3c 46 cb 83 bd
       -0.026480332 -0.06288823 0.021475438 -0.06435256
000390 5c 6d ac bc fd 42 e1 bb 83 25 07 bd 97 4e 65 3d
       -0.02104824 -0.0068744407 -0.03299476 0.055983152
0003a0 78 a3 56 3d 58 f1 3f 3c 51 f6 ab 3c 9a 20 c6 3b
       0.05240199 0.011715256 0.020991476 0.006046367
0003b0 1a db 29 bc 7f 42 2b bc 53 6a 00 bd 4d 78 00 bd
       -0.010367179 -0.010452866 -0.0313514 -0.031364728
0003c0 3d e3 9a bb c6 2b d3 3c c2 5a 5c bc 40 91 e1 bb
       -0.004726796 0.025777709 -0.013449373 -0.00688377
0003d0 ac c4 57 3d 0e c6 22 bc 43 55 dc bb 94 77 9b bc
       0.052677795 -0.009934915 -0.006724031 -0.018977918
0003e0 24 fb 21 3d 4d 05 b7 3b 5f 38 22 3d d0 90 09 bc
       0.039546147 0.0055853487 0.03960454 -0.008396342
0003f0 e1 06 84 b9 ba e1 b5 3c bb a3 cc bb 20 43 a9 3c
       -0.00025182127 0.022202361 -0.006245104 0.02066189
