textual_inversions/sdxl/wearable_glasses/learned_embeds.safetensors (safetensors, 3192 bytes, 1 tensors)

<wearable_glasses> f4 [1, 768]
000000 da 69 e0 3b bb 5b 60 bd 1a 18 2e bd 16 86 26 be
       0.006848556 -0.05477498 -0.042503454 -0.16262087
000010 81 ca 8f bd 91 fa 6a 3d c4 c3 45 3b 31 66 12 3c
       -0.070210464 0.057367865 0.00301765 0.008935497
000020 43 bd 94 bb 42 9d 90 3d 3e 80 de bc f2 d9 52 bd
       -0.0045391633 0.070612445 -0.02716076 -0.05147738
000030 53 6b 9f bd 0c 7d 79 3d fd cb 12 bd 29 3e 92 bb
       -0.07784142 0.06091027 -0.03583907 -0.0044629765
000040 57 82 c5 bb 97 e4 01 3d 66 2d eb bd 3c 33 c8 3d
       -0.0060275006 0.03171214 -0.114832684 0.09775397
000050 66 26 a0 3c 24 b3 67 bd 2d 72 f4 3d 7f a6 87 bd
       0.01954956 -0.056567326 0.1193584 -0.066235535
000060 ee fc 70 3c 79 37 82 bd 7c 9a a0 3d 7b cb 84 bc
       0.014708741 -0.06358237 0.078419656 -0.016210308
000070 ad ea f9 3d 89 d6 f2 bd 58 58 56 3c ae 7d 89 3d
       0.12202964 -0.118573256 0.013082586 0.067134246
000080 55 52 58 3c ae 02 81 3d e0 9a bd bc 98 9b 79 3e
       0.013203223 0.06299339 -0.02314514 0.2437576
000090 77 74 7e bd 1a f5 24 bd 91 c8 03 be f7 52 5c 3d
       -0.06212279 -0.04027281 -0.12869479 0.05379006
0000a0 ef 89 13 bd 3e 3d eb bb 2d 57 d1 bd 5f 5b 0b bd
       -0.036020216 -0.0071789315 -0.102217056 -0.034022685
0000b0 bd af 2d bc 99 c3 52 3d 84 94 55 3d ae 2c 8a 3d
       -0.010600981 0.051456068 0.05214359 0.06746803
0000c0 c7 51 56 bd 15 d2 87 bd 86 2f c7 3d e3 6a 79 bc
       -0.052324083 -0.06631867 0.09725861 -0.015223238
0000d0 2d 9a 46 3d 48 97 26 3c c6 4d 63 3c bc 2f 7f bd
       0.048486877 0.010167904 0.013873523 -0.062301382
0000e0 0e 85 d9 bc 38 f2 c2 3c 37 b2 f1 bd eb 91 48 bd
       -0.026552703 0.02379714 -0.1180157 -0.048967283
0000f0 ff 63 a4 bd 03 a2 23 bc b3 0d a9 bc d2 6a 80 3d
       -0.08026885 -0.009987357 -0.020636415 0.06270374
000100 aa 6d 6f 3d ef 6f 50 bd 8d 5d 37 3d 71 30 18 3e
       0.058454193 -0.050888 0.04476695 0.14862229
000110 de e3 d7 3c ee 97 4e 3d cb 25 c8 3d 94 e7 4a bc
       0.026353773 0.05043786 0.097728334 -0.012384314
000120 f3 11 c6 bb f2 b5 58 bd da d9 e9 3c 6e 30 ee 3d
       -0.00604462 -0.05290789 0.028546263 0.11630331
000130 3f f8 80 3d e2 54 0c 3e 33 33 86 39 d2 44 df bd
       0.06297349 0.13704255 0.00025596618 -0.10901798
000140 3a a9 43 3d 9d c0 56 bd 29 da df bd ad 38 ae bc
       0.04776881 -0.052429784 -0.109302826 -0.02126726
000150 60 0b 9c 3d 5d e9 c2 3c 83 48 58 3b ff 6d 81 3d
       0.07619357 0.023792917 0.0033002205 0.06319808
000160 49 5d 8d 3d dc a9 eb bd fd 4d 53 3d 12 4a 5a 3d
       0.06902558 -0.115070075 0.051588047 0.053293295
000170 69 6e 26 bd d7 9e c0 bd 39 38 c6 3d 65 8e db bd
       -0.04063264 -0.09405296 0.09678692 -0.10720519
000180 7b e6 c3 bd a6 64 d7 3d 52 72 da 3b f6 58 04 bd
       -0.09565445 0.10517244 0.00666646 -0.032311402
000190 d3 cc 52 3a 2f 79 1b 3e 90 27 f3 3c fc 0d 84 3c
       0.00080413854 0.15182947 0.02968195 0.01611995
0001a0 df 96 41 be 57 95 9d 3c fd d8 90 bd df 03 be bc
       -0.18905209 0.01923625 -0.07072637 -0.023195205
0001b0 be 8a 05 3e 79 f4 b4 3d b5 6b 9c bd aa 83 18 bd
       0.13041207 0.08835692 -0.07637731 -0.03723494
0001c0 b4 4d a9 3c 99 f9 d9 bc 1d 22 fb 3c 37 f6 4c 3c
       0.020666935 -0.026608275 0.030655915 0.012509874
0001d0 93 5e a9 bd 92 10 79 bd e9 d6 fa bd 57 b0 7b bd
       -0.08269992 -0.06080682 -0.12248022 -0.061447468
0001e0 e8 b4 fb bb ef 54 1f 3c a6 88 5e 3c 2c 41 51 3d
       -0.007681478 0.00972484 0.013582384 0.051087543
0001f0 ec 69 e1 bc 0a 7c 9b bc a3 cf d8 bc 91 70 ae bd
       -0.027516328 -0.018980045 -0.026466196 -0.08517564
000200 90 7b eb 3c b7 a1 80 bd 1f 4d 72 3d 0e ef 06 be
       0.028745443 -0.06280845 0.05915558 -0.1317713
000210 74 64 10 bd c8 6e 0c 3d 2c 3f 18 bd 0a 08 58 3d
       -0.03525205 0.034285337 -0.03716962 0.05274204
000220 01 0b 29 3d 18 a2 aa 3d 46 84 7b bd c0 9c 7c bd
       0.04127026 0.08331698 -0.061405443 -0.061672926
000230 cc 7f 3e bd af 8e 72 3d a3 d4 e2 3d a3 47 c1 3d
       -0.046508595 0.059218105 0.110757135 0.09437492
000240 d5 40 4e 3d 41 53 41 3d c0 c8 d3 3b 4b 34 97 3c
       0.050354797 0.047198538 0.0064631402 0.018457552
000250 9c aa 03 3d 81 61 bf bd 4b 01 04 bc c9 24 53 3d
       0.032145128 -0.09344769 -0.008056949 0.051548753
000260 dd 37 57 3c d1 32 e6 bd 90 e1 db bc c1 2b 9e bd
       0.013135877 -0.11240161 -0.026840955 -0.07723189
000270 0b b5 c9 bd b6 57 36 3d 68 2f 63 bc f8 e3 a6 3c
       -0.09848984 0.04451724 -0.013866283 0.020372376
000280 2b f7 09 3e f6 36 5d bd 0c 81 07 3e 51 85 13 bd
       0.13473193 -0.054007493 0.13232821 -0.036015812
000290 42 39 cb 3c 87 11 f8 bd 71 ae 85 3d 75 7a 54 3d
       0.024807576 -0.12112718 0.06527413 0.051874597
0002a0 f1 d7 6c 3d 03 f5 b1 3c b3 c2 a0 3d 29 07 b2 bd
       0.057823125 0.021723276 0.07849636 -0.08692772
0002b0 e5 31 9a bd ab 46 a9 bc 6a 85 27 3d 18 da 9e bd
       -0.07529048 -0.02066358 0.040898718 -0.07756442
0002c0 87 25 8b bd 2c 46 e5 bd dd 89 40 3c 9f b4 de 3d
       -0.06794267 -0.11195025 0.011751619 0.108742945
0002d0 65 a2 01 be 2f 3a 7a 3c 5d 12 67 3d c6 e5 b3 3b
       -0.12659605 0.015272661 0.056413997 0.0054900376
0002e0 3e 45 cd bd bb 93 2c be a9 8e 98 3c 18 e8 34 3d
       -0.100229725 -0.1685323 0.018622713 0.044166654
0002f0 a7 14 1c 3d b3 67 f1 bc 48 42 88 bd 4c 11 a6 3a
       0.038105633 -0.029468393 -0.06653267 0.001266995
000300 5f cf 23 3d 96 19 05 bd 2c ef 39 bd b9 02 35 bc
       0.039992686 -0.032495104 -0.045394108 -0.011048012
000310 ec 11 88 bd 46 59 ad 3b ef 4c f5 3d 42 99 18 3b
       -0.06644043 0.0052901832 0.119775645 0.0023284708
000320 74 4d 0c 3d a9 bc a8 3c 0b 67 1f 3e a5 de 96 3d
       0.034253553 0.020597773 0.15566652 0.07366685
000330 78 86 1c 3d 94 78 fc 3b d9 50 08 3e 26 9a bc bd
       0.038214177 0.0077048037 0.13312091 -0.09209089
000340 53 43 03 be a7 8d db bc 8c db 4c be 82 52 53 3d
       -0.12818651 -0.026800944 -0.20005625 0.051592357
000350 ad 67 43 bd dc 18 15 be 10 d2 be bd 40 76 a6 bc
       -0.047706295 -0.14560264 -0.0931741 -0.020320058
000360 bc 95 3f 3d 9e 47 db 3b 66 08 43 bd 33 7d 30 bc
       0.046773657 0.006691887 -0.04761543 -0.010772037
000370 1f ee c6 bc 2b d2 c7 3c 64 35 52 bd 01 46 5c bd
       -0.024283467 0.024392208 -0.05132045 -0.0537777
000380 54 55 14 bc 0d dc 71 3d 15 c4 45 bb 6a ed 9c ba
       -0.009053547 0.059047747 -0.0030176688 -0.001197261
000390 f3 33 63 bd bc 93 34 3d 38 f4 26 bd 49 e7 b0 bd
       -0.055469465 0.044086203 -0.04076025 -0.08637864
0003a0 8c d4 82 3d 8e f4 bb bc b7 b6 b2 bd 71 53 f2 bc
       0.06388196 -0.022943761 -0.08726256 -0.029580804
0003b0 5e d9 8e 3c 0b f6 30 bd 3d 2a b8 bc e3 f5 e2 bd
       0.017437633 -0.043203395 -0.022481078 -0.110820554
0003c0 c5 b2 89 bc d6 4c 23 be 9a 49 e2 bd 58 43 8f 3c
       -0.016808877 -0.1594728 -0.11049195 0.017488167
0003d0 26 e6 d7 3d a3 b9 89 bd 7e bb 19 be 48 60 2e 3e
       0.10541944 -0.067248605 -0.15012929 0.17028916
0003e0 1f b6 64 3d c7 40 ab 3d 42 72 7c 3d 2b e3 c8 bd
       0.055837747 0.08361965 0.061632402 -0.09808954
0003f0 5d 2f 7b bd 83 fb 6a bc ab fb 4b bd 95 5c b5 3c
       -0.061324466 -0.014342192 -0.049800556 0.022138873
