textual_inversions/sdxl/wearable_glasses/learned_embeds_2.safetensors (safetensors, 2680 bytes, 1 tensors)

<wearable_glasses> bf16 [1, 1280]
-0.029907227 -0.052246094 0.05102539 -0.13671875 -0.04272461 -0.13476562 0.123046875 -0.07714844
-0.10498047 0.06225586 -0.028564453 0.10058594 0.053955078 -0.017211914 0.03466797 -0.15429688
-0.040283203 -0.095214844 -0.12695312 -0.020263672 -0.016723633 0.028442383 0.15429688 0.014831543
-0.1953125 -0.052246094 0.12890625 -0.15820312 0.05883789 0.15136719 0.048828125 0.07519531
-0.10644531 -0.10986328 0.11816406 0.027832031 -0.06982422 0.008972168 -0.049560547 -0.0703125
0.08203125 0.1171875 -0.14355469 -0.07080078 0.099121094 -0.11035156 -0.12792969 0.008422852
-0.037841797 -0.041259766 -0.01940918 0.015563965 0.0107421875 0.040283203 -0.01184082 0.040527344
-0.04272461 0.16796875 -0.104003906 0.07421875 0.052734375 0.015625 -0.040283203 -0.03125
0.02758789 -0.0546875 0.053710938 -0.05444336 -0.080566406 0.09375 -0.053710938 0.071777344
-0.115234375 -0.0035705566 0.014465332 -0.045654297 0.012207031 -0.08984375 0.013427734 -0.03930664
0.07421875 0.05078125 -0.20703125 0.00061416626 0.06298828 -0.083984375 -0.02368164 -0.03564453
-0.12792969 -0.06689453 -0.01928711 0.092285156 -0.012512207 -0.007293701 0.007446289 0.06298828
-0.015625 -0.037109375 -0.064941406 -0.14160156 -0.0625 -0.026733398 0.04248047 0.07421875
0.09716797 -0.17089844 0.04711914 -0.021118164 0.04711914 0.052978516 0.122558594 -0.030029297
-0.021118164 0.060546875 -0.040527344 -0.07080078 0.013122559 -0.041992188 0.10449219 0.083496094
0.06591797 -0.016723633 -0.09082031 0.16699219 0.000831604 0.026367188 -0.067871094 0.09863281
0.08691406 -0.036376953 -0.12451172 0.013000488 -0.09375 -0.021972656 0.16699219 -0.07080078
-0.041015625 -0.008911133 0.05810547 0.057617188 0.08105469 0.02722168 -0.09082031 -0.028930664
-0.053466797 0.01928711 -0.01953125 0.045654297 -0.048828125 -0.13378906 -0.09082031 0.05859375
-0.109375 -0.03149414 -0.001663208 -0.051513672 0.059570312 0.09716797 -0.01159668 0.06738281
0.040283203 0.0390625 -0.04345703 -0.028808594 -0.1328125 -0.19238281 0.021118164 -0.036132812
-0.038085938 0.006286621 -0.15429688 0.11328125 -0.04321289 -0.01977539 -0.0087890625 -0.0859375
-0.059570312 0.045898438 0.07861328 0.002609253 -0.25195312 0.04248047 0.055664062 0.0024871826
0.01184082 0.03125 0.07763672 -0.087890625 0.0009918213 0.026000977 -0.107421875 0.032958984
-0.056884766 0.06542969 0.049316406 0.09082031 -0.08251953 0.010864258 0.0011444092 -0.048583984
0.087402344 -0.037109375 -0.13964844 -0.030761719 -0.0027923584 -0.029296875 -0.030151367 -0.06201172
-0.037597656 -0.080566406 -0.029052734 0.041015625 -0.051757812 0.05517578 -0.013244629 0.0045166016
-0.025878906 0.025024414 -0.12402344 -0.036132812 0.09033203 0.014587402 0.037353516 0.03100586
-0.01550293 0.03881836 0.0546875 0.02734375 0.02331543 0.017944336 0.10253906 -0.05102539
0.00077438354 -0.06542969 -0.14160156 0.09863281 0.014587402 -0.022583008 0.02734375 -0.068847656
-0.025512695 -0.025268555 -0.19921875 -0.0009727478 -0.011230469 0.045654297 -0.018310547 -0.13378906
-0.080566406 0.008117676 -0.01953125 -0.029663086 -0.068847656 0.036621094 -0.083496094 0.036865234
00000000: f5bc 56bd 513d 0cbe 2fbd 0abe fc3d 9ebd
00000010: d7bd 7f3d eabc ce3d 5d3d 8dbc 0e3d 1ebe
00000020: 25bd c3bd 02be a6bc 89bc e93c 1e3e 733c
00000030: 48be 56bd 043e 22be 713d 1b3e 483d 9a3d
00000040: dabd e1bd f23d e43c 8fbd 133c 4bbd 90bd
00000050: a83d f03d 13be 91bd cb3d e2bd 03be 0a3c
00000060: 1bbd 29bd 9fbc 7f3c 303c 253d 42bc 263d
00000070: 2fbd 2c3e d5bd 983d 583d 803c 25bd 00bd
00000080: e23c 60bd 5c3d 5fbd a5bd c03d 5cbd 933d
00000090: ecbd 6abb 6d3c 3bbd 483c b8bd 5c3c 21bd
000000a0: 983d 503d 54be 213a 813d acbd c2bc 12bd
000000b0: 03be 89bd 9ebc bd3d 4dbc efbb f43b 813d
000000c0: 80bc 18bd 85bd 11be 80bd dbbc 2e3d 983d
000000d0: c73d 2fbe 413d adbc 413d 593d fb3d f6bc
000000e0: adbc 783d 26bd 91bd 573c 2cbd d63d ab3d
000000f0: 873d 89bc babd 2b3e 5a3a d83c 8bbd ca3d
00000100: b23d 15bd ffbd 553c c0bd b4bc 2b3e 91bd
00000110: 28bd 12bc 6e3d 6c3d a63d df3c babd edbc
00000120: 5bbd 9e3c a0bc 3b3d 48bd 09be babd 703d
00000130: e0bd 01bd daba 53bd 743d c73d 3ebc 8a3d
00000140: 253d 203d 32bd ecbc 08be 45be ad3c 14bd
00000150: 1cbd ce3b 1ebe e83d 31bd a2bc 10bc b0bd
00000160: 74bd 3c3d a13d 2b3b 81be 2e3d 643d 233b
00000170: 423c 003d 9f3d b4bd 823a d53c dcbd 073d
00000180: 69bd 863d 4a3d ba3d a9bd 323c 963a 47bd
00000190: b33d 18bd 0fbe fcbc 37bb f0bc f7bc 7ebd
000001a0: 1abd a5bd eebc 283d 54bd 623d 59bc 943b
000001b0: d4bc cd3c febd 14bd b93d 6f3c 193d fe3c
000001c0: 7ebc 1f3d 603d e03c bf3c 933c d23d 51bd
000001d0: 4b3a 86bd 11be ca3d 6f3c b9bc e03c 8dbd
000001e0: d1bc cfbc 4cbe 7fba 38bc 3b3d 96bc 09be
000001f0: a5bd 053c a0bc f3bc 8dbd 163d abbd 173d
