textual_inversions/sdxl/pet_cat1/learned_embeds_2.safetensors (safetensors, 2672 bytes, 1 tensors)

<pet_cat1> bf16 [1, 1280]
000000 a4 3d e7 bb 3a 3c 06 bd 5d bd 85 bd b8 3c 99 3c
       0.080078125 -0.0070495605 0.011352539 -0.032714844 -0.053955078 -0.064941406 0.022460938 0.018676758
000010 69 bc c5 3d 4b bc 7a bc 70 3d 0a 3d 1b 3d b0 bc
       -0.014221191 0.096191406 -0.012390137 -0.015258789 0.05859375 0.033691406 0.037841797 -0.021484375
000020 92 3d a3 bd 12 bd 58 bd d1 bd 1b 3e fd 3c 2d 3d
       0.07128906 -0.079589844 -0.03564453 -0.052734375 -0.10205078 0.15136719 0.030883789 0.042236328
000030 92 bc 0a 3d b5 3c c1 bb dd bd 0d be e2 3c f8 bc
       -0.017822266 0.033691406 0.022094727 -0.0058898926 -0.107910156 -0.13769531 0.02758789 -0.030273438
000040 0b 3d 45 3d cf 3d a5 3c 9b 3d e7 bc e4 3c 46 3d
       0.033935547 0.048095703 0.10107422 0.020141602 0.075683594 -0.028198242 0.027832031 0.048339844
000050 e8 bd 6d bd 89 bb ed bd 9e 3d 33 3d da bd 33 bd
       -0.11328125 -0.057861328 -0.004180908 -0.115722656 0.07714844 0.043701172 -0.10644531 -0.043701172
000060 3f 3d 30 bd fd bb 29 bc 41 3b a7 3c 8b 3d 5c bd
       0.04663086 -0.04296875 -0.0077209473 -0.010314941 0.0029449463 0.020385742 0.067871094 -0.053710938
000070 0b bc 70 3d df bd 9b 3d de bc ba bd 7f 3d fb 3a
       -0.008483887 0.05859375 -0.10888672 0.075683594 -0.02709961 -0.09082031 0.06225586 0.001914978
000080 5f 3b 93 bd 95 bd 20 bd 76 bb 92 3d da bd 82 bd
       0.00340271 -0.071777344 -0.072753906 -0.0390625 -0.003753662 0.07128906 -0.10644531 -0.06347656
000090 ea bd 5d 3c 4b 3c 98 3d e6 3c a1 3d 54 bd af 3c
       -0.11425781 0.0134887695 0.012390137 0.07421875 0.028076172 0.07861328 -0.051757812 0.021362305
0000a0 9b 3d 95 3c d7 bd 84 3d bf 3c 37 3d be bc ae 3a
       0.075683594 0.018188477 -0.10498047 0.064453125 0.02331543 0.044677734 -0.02319336 0.0013275146
0000b0 af bc 58 bd 0b bd 9a 3c c9 3d a2 3c a4 bd 58 3d
       -0.021362305 -0.052734375 -0.033935547 0.018798828 0.09814453 0.01977539 -0.080078125 0.052734375
0000c0 3a bd 1a 3d a4 3c c7 bc 56 3d a2 bc fb bc 00 3e
       -0.045410156 0.037597656 0.020019531 -0.024291992 0.052246094 -0.01977539 -0.030639648 0.125
0000d0 8d bd 77 bd 50 be 7d bd cc bd 28 bd ab bc 1d 3d
       -0.068847656 -0.060302734 -0.203125 -0.061767578 -0.099609375 -0.041015625 -0.020874023 0.038330078
0000e0 88 3c 58 bc 11 be 97 bd 94 3d cd 3c 11 be 31 3d
       0.016601562 -0.013183594 -0.14160156 -0.07373047 0.072265625 0.025024414 -0.14160156 0.04321289
0000f0 f3 ba 18 bd 9e bd 93 3b 24 3c 29 bd 99 bd 13 bb
       -0.0018539429 -0.037109375 -0.07714844 0.004486084 0.010009766 -0.041259766 -0.07470703 -0.002243042
000100 88 39 60 3d 67 bb f1 3d 30 3c ff 3c 96 bc 04 bd
       0.0002593994 0.0546875 -0.0035247803 0.11767578 0.0107421875 0.03112793 -0.018310547 -0.032226562
000110 e1 3c 88 bd dc 3d 89 3c ec 3b ed bd e6 bc 5f 3d
       0.02746582 -0.06640625 0.107421875 0.016723633 0.0072021484 -0.115722656 -0.028076172 0.05444336
000120 14 bd 87 bc 30 bd 67 bd d2 bc 88 bd 9f bd bf 3d
       -0.036132812 -0.016479492 -0.04296875 -0.056396484 -0.025634766 -0.06640625 -0.07763672 0.09326172
000130 08 bd 2f 3d 83 3c 86 bd 3e bd 94 bd bb 3c 0b be
       -0.033203125 0.04272461 0.015991211 -0.06542969 -0.04638672 -0.072265625 0.022827148 -0.13574219
000140 10 3d 33 bd 09 3e 14 3d e6 bd c9 bb f3 b8 f4 3c
       0.03515625 -0.043701172 0.13378906 0.036132812 -0.11230469 -0.006134033 -0.00011587143 0.029785156
000150 b2 bd 07 bd dd bd 69 3d 9a 3a b0 3d d7 bc 29 3d
       -0.08691406 -0.032958984 -0.107910156 0.056884766 0.0011749268 0.0859375 -0.026245117 0.041259766
000160 79 bc 09 3e 9f bc c7 3c c9 bc 86 3c 9c bd 79 3d
       -0.015197754 0.13378906 -0.01940918 0.024291992 -0.024536133 0.016357422 -0.076171875 0.060791016
000170 2d bd 0b 3d 9a 3d fb 3c 1e 3d 40 3d a6 bc 93 38
       -0.042236328 0.033935547 0.07519531 0.030639648 0.03857422 0.046875 -0.020263672 7.009506e-05
000180 dc 3c 32 be 83 3d 34 3c 8f bc 10 3d 86 3d 93 3b
       0.026855469 -0.17382812 0.063964844 0.010986328 -0.017456055 0.03515625 0.06542969 0.004486084
000190 2b bd 1d be eb bd 11 3d dc 3c 2d bd cd 3c a7 3d
       -0.041748047 -0.15332031 -0.114746094 0.03540039 0.026855469 -0.042236328 0.025024414 0.08154297
0001a0 b1 bd e6 bc 9c bd 88 bd 1c bd 70 bc 74 bd 72 bc
       -0.08642578 -0.028076172 -0.076171875 -0.06640625 -0.038085938 -0.0146484375 -0.059570312 -0.014770508
0001b0 10 3e c8 3c fc 3b 59 3d 48 bd bd bd f9 3d a1 3d
       0.140625 0.024414062 0.0076904297 0.052978516 -0.048828125 -0.092285156 0.12158203 0.07861328
0001c0 2e 3b ae bd b5 3d 83 bd 27 bd 3c 3e 0a 3e 3f bc
       0.0026550293 -0.08496094 0.088378906 -0.063964844 -0.040771484 0.18359375 0.13476562 -0.011657715
0001d0 f3 3c cc 3d 76 bd af 3d 6e 3d 2c 3d 12 ba 99 bd
       0.029663086 0.099609375 -0.060058594 0.08544922 0.05810547 0.041992188 -0.0005569458 -0.07470703
0001e0 a3 3b a4 bc ef bd 5e 3d 49 3c 79 3b fd 3c a3 bb
       0.0049743652 -0.020019531 -0.11669922 0.05419922 0.012268066 0.0037994385 0.030883789 -0.0049743652
0001f0 41 bc 68 bd b7 3b 78 bd 36 3d a4 3c f3 3c ac bb
       -0.011779785 -0.056640625 0.005584717 -0.060546875 0.044433594 0.020019531 0.029663086 -0.0052490234
