textual_inversions/sdxl/pet_cat1/learned_embeds.safetensors (safetensors, 3184 bytes, 1 tensors)

<pet_cat1> f4 [1, 768]
0	0x3b86f7b6	0.004118885
1	0xbd6b0acd	-0.057383347
2	0xbc601fb3	-0.013679433
3	0xbd342f27	-0.04399028
4	0x3db862d8	0.09003228
5	0x3d6b24cd	0.057408143
6	0xbe0f1da4	-0.13976151
7	0x3db58807	0.08863836
8	0xbc58786d	-0.0132123055
9	0x3b5563db	0.003256074
10	0xbda4dd41	-0.08050013
11	0x3d13c0d9	0.036072586
12	0xbbfb1cf7	-0.007663365
13	0x3c286148	0.0102771
14	0xbde14d23	-0.11001041
15	0x3d30ca80	0.04316187
16	0xbdcb6f31	-0.099333175
17	0x3cc20160	0.023682296
18	0xbd1b5647	-0.037924077
19	0x3d94103c	0.07229659
20	0xbe3a1505	-0.18172081
21	0xbccf15ab	-0.025278887
22	0x3c6568ca	0.014002034
23	0x3db596a3	0.08866622
24	0x3cd6d99a	0.026226807
25	0x3cd41146	0.025887143
26	0xbda3cf37	-0.079985075
27	0x3ca6c699	0.02035837
28	0xbd44e0af	-0.048065837
29	0xbabddf69	-0.0014486137
30	0xbe1c01ec	-0.15235108
31	0x3d1aacc0	0.037762403
32	0xbde799f7	-0.11308663
33	0x3dbab82f	0.091171615
34	0x3d3ca8e9	0.046059523
35	0x3e51215b	0.2042288
36	0x3b6c7ac7	0.0036083923
37	0xbd74b35f	-0.059741374
38	0xbcbcc3be	-0.023042556
39	0xbc0fbe89	-0.008773454
40	0xbbb7974e	-0.0056027537
41	0x3d13c009	0.03607181
42	0xbd54aa2a	-0.051920094
43	0x3da8fb2b	0.082510315
44	0x3df17055	0.11789004
45	0xbd9be84b	-0.07612666
46	0xbdfcfcfd	-0.12352941
47	0xbd5a51cb	-0.05330066
48	0x3cbfcaee	0.023412194
49	0xbd831fe4	-0.06402567
50	0xbc04cf50	-0.008106068
51	0xbce0e35b	-0.027452162
52	0x3e663c46	0.2248393
53	0xbd928693	-0.07154574
54	0xbd47609d	-0.048676122
55	0xbc3dcf26	-0.011585033
56	0x3d81b4fc	0.06333348
57	0xbe0cc7b5	-0.13748057
58	0xbd32c90f	-0.043648776
59	0x3dcf107c	0.10110566
60	0xbd173672	-0.036917157
61	0x3d97046c	0.0737389
62	0xbc849fd1	-0.016189488
63	0x3dd2978d	0.10282812
64	0x3e141439	0.1446084
65	0xbc82644a	-0.015916962
66	0x3d560bbd	0.05225729
67	0xbc2686e4	-0.010163996
68	0xbc98a429	-0.018632965
69	0xbda29c85	-0.0794001
70	0xbd91b835	-0.07115213
71	0xbd677d13	-0.056515764
72	0x3cfd6b74	0.030935027
73	0xbd1b5322	-0.03792108
74	0xbda8b016	-0.08236711
75	0xbcad1cb9	-0.02113186
76	0xbc32f399	-0.010922336
77	0x3daad00d	0.08340464
78	0x3d376f5c	0.044783935
79	0xbb8eb9cf	-0.004355646
80	0x3de5ddb8	0.1122393
81	0xbd9c76c1	-0.07639838
82	0x374c1d26	1.2166134e-05
83	0xbdbe965d	-0.09306023
84	0x3db73796	0.08946149
85	0xbd98b897	-0.07457083
86	0x3bf119ff	0.0073578353
87	0xbd51fea3	-0.05126823
88	0x3c86e9c4	0.01646889
89	0xbd6b2533	-0.057408523
90	0xbbd151b8	-0.0063879155
91	0x3e0432c8	0.12909997
92	0x3c91dcdb	0.017805507
93	0x3c16b228	0.009197749
94	0xbd42858d	-0.047490645
95	0x3c93fe5f	0.01806563
96	0xbd50d2ce	-0.05098229
97	0x3e1d2155	0.15344746
98	0x3dbdf648	0.0927549
99	0x3cf00aa0	0.029301941
100	0x3c603fc3	0.013687077
101	0x3c9d9733	0.019237136
102	0x3d795739	0.060874198
103	0x3cb7275d	0.022357637
104	0xbdb6eb33	-0.089315794
105	0x3d8541d9	0.065067
106	0x3e239ee9	0.15978588
107	0xbdb614af	-0.08890664
108	0xbcc50cdc	-0.024053983
109	0x3d97c22a	0.07410081
110	0xbd76ab41	-0.060221914
111	0xbd5cee04	-0.053937927
112	0xbd104569	-0.035222445
113	0xbd96669c	-0.0734379
114	0xbdd87065	-0.105683126
115	0x3d4d354f	0.050099667
116	0x3db97659	0.09055776
117	0xbd292f46	-0.04130485
118	0x3c5326eb	0.012887697
119	0x3c3e14bf	0.011601626
120	0xbd66267a	-0.056189038
121	0x3d95893f	0.07301568
122	0xbda4cfd5	-0.08047453
123	0x3d4f76fa	0.050650574
124	0x3de0981f	0.10966515
125	0xbca7994b	-0.020458838
126	0xbd08f2e0	-0.03343475
127	0xbdaabdb7	-0.083369665
128	0xbc188758	-0.009309612
129	0xbd8837dd	-0.0665128
130	0x3bcca81b	0.0062456257
131	0xbd9698d0	-0.073533654
132	0xbdc8b5da	-0.098003104
133	0x3d11d60e	0.03560453
134	0xbce9b33d	-0.02852785
135	0xbd56ed3b	-0.052472334
136	0xbd30799f	-0.043084737
137	0xbbf2748e	-0.0073991483
138	0xbc11515f	-0.008869498
139	0xbd31d285	-0.043413658
140	0xbd171e14	-0.03689392
141	0x3d5ab057	0.053390827
142	0x3c4006cc	0.0117203705
143	0x3ce2898d	0.02765348
144	0x3e5eac4a	0.2174541
145	0xbb88d74b	-0.0041760555
146	0xbe0849f9	-0.13309468
147	0xbdee04a9	-0.116219826
148	0x3d70aedf	0.05876052
149	0x3c4f9ece	0.012672139
150	0xbd6b8103	-0.057496082
151	0x3d849db4	0.06475392
152	0x3d9bfb46	0.07616286
153	0xbd1e978e	-0.038718753
154	0xbc41255f	-0.011788695
155	0x3cd8c57b	0.026461354
156	0xbd29fb04	-0.041499153
157	0xbd4a9dc2	-0.049466856
158	0x3d7414d0	0.05959016
159	0xbdcbdda2	-0.099543825
160	0x3c4cb0d3	0.01249333
161	0x3d6d0c95	0.057873327
162	0x3e2b364d	0.16719933
163	0x3d42a7d1	0.047523323
164	0xbc2d1749	-0.010564634
165	0x3c4d8f63	0.012546393
166	0x3e713bfd	0.2355804
167	0xbba31c29	-0.004977722
168	0xbd43ad32	-0.047772594
169	0xbdeb7e25	-0.114986695
170	0x3c0df179	0.008663529
171	0xbd74be3b	-0.05975173
172	0xbe0bd819	-0.13656653
173	0x3d5fd003	0.054641735
174	0x3def27be	0.11677502
175	0x3db74adb	0.089498244
176	0xbcff7e86	-0.03118826
177	0xbd77fc04	-0.060543075
178	0xbd89d692	-0.06730379
179	0xbc79f353	-0.015255767
180	0x3c7948c7	0.015215105
181	0x3dd34ab0	0.1031698
182	0x3d7497df	0.059715148
183	0x39014b76	0.0001233051
184	0x3d4d6229	0.05014244
185	0xbd68dcca	-0.056851186
186	0x3d549a3e	0.05190491
187	0xbd31b4c5	-0.043385286
188	0xbc87bf6e	-0.016570773
189	0x3dc12d40	0.09432459
190	0x3d33cbc1	0.043895487
191	0xbe0af1b3	-0.13568763
192	0x3cb2d9f3	0.021832442
193	0xbd95c9b2	-0.07313861
194	0xbd771fd4	-0.060333088
195	0xb986f466	-0.00025740563
196	0xbda6e42c	-0.08148989
197	0x3d2b2c88	0.041790515
198	0x3b9d3840	0.0047979653
199	0x3db74d39	0.08950276
200	0xbd3d8a30	-0.046274364
201	0x3bf0d408	0.007349495
202	0x3d92a749	0.07160813
203	0xbd21cd3c	-0.039502367
204	0x3cfaa996	0.030598443
205	0x3c0e5cda	0.00868913
206	0xbc67cd03	-0.014148
207	0x3cbafa0f	0.022824315
208	0xbe7de203	-0.24793248
209	0xbc08cf15	-0.008350153
210	0x3d8f3f03	0.069944404
211	0x3e04eda0	0.12981272
212	0x3cfb67ba	0.03068911
213	0x3c045388	0.008076556
214	0xbdee440c	-0.11634073
215	0xbd99ef5f	-0.075163595
216	0x3d3ce4e3	0.04611672
217	0x3d2b1f9a	0.041778184
218	0x3ca3b08f	0.01998165
219	0xbc3d5d3f	-0.011557876
220	0xbcdb2e4f	-0.02675548
221	0xbd011cc4	-0.031521574
222	0xbe1edc8e	-0.15513822
223	0xbbd2af96	-0.006429623
224	0xbda5fa3e	-0.081043705
225	0xbd175aa8	-0.03695169
226	0x3de5879c	0.11207506
227	0xbdfda841	-0.123856075
228	0xbdb90022	-0.090332285
229	0x3d072128	0.032990605
230	0x3da061a2	0.07831122
231	0x3cf7c576	0.030245524
232	0x3cb3daf1	0.021954985
233	0xbd83c033	-0.064331435
234	0x3e023a87	0.12717639
235	0x3de1ca82	0.110249534
236	0x3d5df98d	0.05419307
237	0x3c72139a	0.014775181
238	0xbd5e5b92	-0.054286547
239	0xbd82ac33	-0.06380501
240	0xbc96f293	-0.018426215
241	0xbd556344	-0.05209662
242	0x3dc161cc	0.094424814
243	0x3df8aaa7	0.12141924
244	0xbd156363	-0.036471736
245	0xbcd01164	-0.025398917
246	0xbd920eb7	-0.07131713
247	0xbd8e491b	-0.069475375
248	0x3ddc796e	0.107653484
249	0xbd159993	-0.036523413
250	0xbd00fd47	-0.031491544
251	0x3acbc989	0.0015547733
252	0x3c9fb7c0	0.019496799
253	0xbdbe76e5	-0.09300021
254	0xbe0a2226	-0.13489589
255	0x3c544820	0.012956649
